test/models/squeezenet1.0_nhwc/weights/conv1_kernel.npy (npy, 56528 bytes, 1 tensors)

array f4 [7, 7, 3, 96]
000000 e9 9f 04 3f 82 77 0e bd 8a a8 1b 3d 91 bb 8f 3e
       0.51806504 -0.03478194 0.03800253 0.2807279
000010 1d cd 0b 3d 39 31 9a 3b 25 0a 9e bd d5 b3 0a be
       0.03413116 0.004705575 -0.07716779 -0.13545163
000020 f2 87 47 3d 6f e7 d5 bd 1f d4 0e bc d1 25 56 3e
       0.048713632 -0.10444533 -0.008717566 0.20912863
000030 1c 52 3a be 02 1e 37 3f b6 ce c5 bd 3c 11 a8 bd
       -0.18195385 0.71530163 -0.096585676 -0.08206412
000040 f6 8d e4 3d fc 51 92 3e 5a b5 84 3e 50 50 5b bd
       0.111598894 0.28578174 0.2591961 -0.05354339
000050 c3 ba 03 3f cf 16 49 3e 1d bc b9 bb 41 c1 0f 3e
       0.5145685 0.19637607 -0.005668177 0.14038564
000060 0e a7 9b 3c 19 31 00 be b6 c9 f1 3d e7 cb b9 3d
       0.019000556 -0.1251873 0.118060514 0.090720944
000070 e1 54 83 bd b5 0f e0 bd d0 b7 96 bd 4d 40 b3 bd
       -0.06412674 -0.10940496 -0.07359278 -0.08752499
000080 28 ad 26 bb d3 56 4b bd c9 64 23 be 75 8b 51 be
       -0.00254328 -0.04964335 -0.15956415 -0.20463355
000090 a7 bb a6 3c e6 5b 26 3d 2d 1f bd be 5a f8 25 be
       0.020353151 0.040614985 -0.36937848 -0.1620802
0000a0 19 aa 57 bd 31 20 d1 3b c1 4d 6e bb 2c 0d d4 3c
       -0.052652452 0.0063820113 -0.0036362263 0.025885187
0000b0 83 7b 90 3d 23 28 62 bd b5 cd 8b 3d 92 c1 3b 3e
       0.07054808 -0.05521406 0.06826345 0.1833556
0000c0 a2 4e c7 3d c5 1d 7d bc c4 94 fc bd 9e 9a 02 3d
       0.09731795 -0.015448992 -0.12333062 0.031885736
0000d0 db 69 96 bd 8f 57 f9 bb 3a 9a 76 bd a4 c5 89 3e
       -0.07344409 -0.0076093148 -0.060205676 0.269086
0000e0 9d 35 ac bc 00 9d d2 bd e4 b9 52 be 08 48 16 bd
       -0.021021659 -0.102838516 -0.20578724 -0.036689788
0000f0 76 c2 9f be 3f 37 c2 be 8b 90 c7 3c 06 9d 86 be
       -0.3120305 -0.37932774 0.024360916 -0.26291674
000100 4f a4 0a be a8 8c f6 3d ea 67 39 bd 52 b5 d6 3c
       -0.13539241 0.12038547 -0.045265116 0.026209507
000110 b3 3e d0 bd de 59 35 bd aa 54 3c 3d 35 23 30 be
       -0.10168209 -0.044275157 0.04597918 -0.1720093
000120 ef 47 b6 3e 7e fd 02 3e 99 1f 34 bd e6 11 2d bd
       0.35601756 0.12792012 -0.043975446 -0.042253397
000130 76 2d 35 be 15 1e 91 be bd 74 da bc 4d 38 c4 bd
       -0.17693123 -0.28343263 -0.026666993 -0.09581051
000140 11 f6 b3 3c 72 98 5a 3d a0 07 23 3d dc 88 3c 3c
       0.02196792 0.05336804 0.039802194 0.011507239
000150 0f 20 e2 be c1 1d 9b be 3e 04 e0 3d 86 d7 dc be
       -0.44165084 -0.30296138 0.10938309 -0.4313318
000160 80 d2 18 bf b3 2c 57 3e 84 27 bd 3c c1 98 a5 bd
       -0.596962 0.21013145 0.023090132 -0.08085776
000170 eb 7d 63 bc 9d bc 11 be 7a 99 27 be d6 1b 93 bd
       -0.013885002 -0.14232107 -0.1636714 -0.07183044
000180 58 ca 05 3f 23 0a 37 3d ee 45 11 be e1 b2 2f 3e
       0.5226188 0.0446874 -0.14186832 0.1715808
000190 8f ac fe bc b2 c8 61 bd f8 43 98 3b 47 a1 83 3e
       -0.031088142 -0.05512304 0.0046467744 0.25708982
0001a0 fd 9e 7a bd cb 4e c1 bd b2 5d 6e be 17 d3 73 3e
       -0.06118678 -0.09438857 -0.2327793 0.23810993
0001b0 54 8d 41 3d 20 6a e0 bb ff f4 dd 3d 7f b5 45 3d
       0.04725392 -0.0068485886 0.10837745 0.04826879
0001c0 51 89 6e bd a4 58 08 3c 45 16 07 bf 89 dd fc bd
       -0.058236424 0.008321915 -0.52768356 -0.12346942
0001d0 bd 6c 08 bf f3 4b 1d 3e a1 b9 91 3e b3 ab 19 bd
       -0.5329092 0.15361004 0.28461936 -0.03751726
0001e0 17 96 1b be b0 46 23 3e 12 37 94 3c 45 48 a1 3c
       -0.15193973 0.15944934 0.018092666 0.019687781
0001f0 2b e2 a2 3d d0 44 bc bb 96 8d 9a 3d b1 1e 85 bc
       0.07953294 -0.005745508 0.075465366 -0.016249986
000200 ec ec 24 bd 00 4a 9c bc 34 c4 14 be db d7 68 3d
       -0.04026501 -0.019078255 -0.1452797 0.05684648
000210 33 b0 54 3d 2b 44 28 be 37 f2 2c 3b 6b 49 01 3e
       0.05192585 -0.16432254 0.0026389488 0.12625663
000220 12 da 6b 3c 82 aa a0 3c 1a d3 bb bd 76 71 d6 3d
       0.014395254 0.019612554 -0.09171124 0.1047086
000230 05 1a ca 3d 7d da f3 bd 54 fb df 3d 29 26 d4 bc
       0.09868244 -0.11906908 0.10936609 -0.025897102
000240 54 be 1b 3d 68 4b 2c bd cc 1a 9d 3c f7 2b 10 3e
       0.038023308 -0.0420641 0.019177817 0.14079271
000250 52 2c 7b 3d b4 5b ba 3d dd dd 11 be 8d d0 d3 be
       0.061321564 0.09099522 -0.1424479 -0.4137005
000260 f2 40 94 bd 62 81 bd be 3c 8c ac be aa b2 df bc
       -0.0723895 -0.37012774 -0.3370074 -0.027306873
000270 3d b2 0a 3f 10 ce 05 be c2 3d 83 3e 70 8c 07 be
       0.5417822 -0.13066888 0.25633055 -0.13237166
000280 d5 a6 39 bd 42 aa 02 be 7e b3 ec 3d 15 26 73 3d
       -0.04532512 -0.1276026 0.11557673 0.05936249
000290 ff 04 c1 3d 91 eb 81 bd 85 3b 83 bc b1 37 64 3e
       0.09424781 -0.06343759 -0.016019592 0.2228687
0002a0 6e e0 01 bf 19 f1 a5 3e 98 d5 bf 3d 42 0a 12 bc
       -0.5073308 0.32410505 0.09366912 -0.008913578
0002b0 96 21 bc bd f2 00 94 be 08 a1 89 bd 22 4d 9d 3d
       -0.091860935 -0.2890697 -0.067201674 0.076807275
0002c0 95 f8 d1 bd 12 46 e2 3d 11 15 8c 3c bf 10 fc bb
       -0.102524914 0.11048521 0.017099889 -0.007692426
0002d0 4d 3c f7 3e 89 11 3b 3d f5 bd eb 3c fd b9 90 be
       0.48288193 0.04567102 0.028777102 -0.28266898
0002e0 29 4c e4 bd e0 37 a3 3d 37 c9 31 3c 9a 0a f9 bc
       -0.11147339 0.07969642 0.010851196 -0.030400563
0002f0 62 b4 f9 3d 3c d8 aa bd 7b df f2 3d 09 42 cf bd
       0.121926084 -0.08342025 0.11859032 -0.10120017
000300 31 ca 80 3e be e5 c6 3d 3e 89 9e bd 97 7e bf be
       0.2515426 0.097117886 -0.077410206 -0.37401268
000310 26 9b 23 bd 72 d8 df bd 19 1c 29 be 5f 0e 72 bd
       -0.039942883 -0.109299555 -0.16514625 -0.059095737
000320 8d c3 d7 3d 2b dd e4 bd 84 2b 57 3d 13 df 82 bd
       0.10535345 -0.11174997 0.052531734 -0.06390204
000330 a3 63 b0 3e b5 d6 83 be 68 52 4e 3d ad 3d a9 3d
       0.34451017 -0.25749746 0.050371557 0.08263717
000340 f6 89 55 3d 1f 37 f4 bb c2 aa 90 3e a5 6a 8f be
       0.052133523 -0.00745286 0.28255278 -0.2801105
000350 9b 40 7c bc 2a 17 1e 3e e6 b1 a3 bd e1 4b 3e bc
       -0.0153962625 0.15438524 -0.07992916 -0.011614771
000360 44 13 b4 bd 51 a9 00 be 5f 0e 1e 3d a3 9b 8e be
       -0.08792737 -0.12564589 0.038587924 -0.27853116
000370 58 4e 45 3d 46 26 17 bd 52 8c 01 bd bd 34 0f 3e
       0.048170418 -0.036901735 -0.03162796 0.13984962
000380 a2 b3 f9 bd 07 f3 aa 3e 93 49 bf bd 78 e0 1d be
       -0.12192465 0.3338854 -0.09340205 -0.1541766
000390 e9 06 0b 3d d4 00 4e 3e b6 8c b9 3e ce 67 41 3e
       0.033942137 0.20117503 0.36240166 0.18887255
0003a0 22 ed 67 3c e7 70 9a bd 14 64 a3 3d 13 eb 5e 3d
       0.014155658 -0.07541066 0.07978073 0.054423403
0003b0 73 3a 09 3e 1b 71 8f 3d b5 b6 f7 3d 42 cd a2 bd
       0.13401203 0.07003995 0.120953955 -0.07949306
0003c0 43 4c 6e 3c a1 69 39 3d 73 83 45 3b 96 84 e8 bc
       0.014544549 0.04526675 0.0030138164 -0.028383534
0003d0 3a e5 da 3d af 1c 40 3e b0 20 3f bb 7e cc 1e 3e
       0.10688253 0.18760942 -0.002916377 0.15507695
0003e0 ad 83 3c 3d 66 27 72 bd 9f e1 cf bd f1 03 d9 bc
       0.046024013 -0.059119605 -0.10150456 -0.026491137
0003f0 99 9b 26 be 92 f8 e8 bd 93 cd 96 be ca 0e 0f 3d
       -0.16270293 -0.11375536 -0.29453716 0.034926213
