test/models/squeezenet1.0_nhwc/weights/fire4_e3x3_kernel.npy (npy, 147536 bytes, 1 tensors)

array f4 [3, 3, 32, 128]
000000 af 2d 22 3e 5b 06 79 3d 65 17 78 bd cf 57 3b 3e
       0.1583774 0.060797077 -0.060569186 0.18295215
000010 c7 01 37 bd 2e 53 f7 3c 12 a3 8e 3d 50 da 9e 3d
       -0.04467943 0.03019103 0.06964697 0.077564836
000020 59 d6 0d bd 78 bc b8 3e 40 29 96 bd 9f 75 14 3e
       -0.034628246 0.3608129 -0.073320866 0.14497994
000030 3a e0 b7 bd c5 02 31 be 37 05 82 3d 7c f0 7a 3d
       -0.08978315 -0.17286213 0.06348651 0.0612645
000040 34 fa 17 be 29 0a 4a bd a0 1b c7 bc da 3a 8b bc
       -0.14841539 -0.049326096 -0.024305165 -0.016995836
000050 ec 0b 8e 3d b8 d4 c7 bd 0c c2 fe 3d e7 53 bb 3d
       0.06935868 -0.0975737 0.12439355 0.091468625
000060 48 8e c7 3b 86 3f 6e 3d 5a f2 f6 3c a7 2d 85 be
       0.0060899593 0.05816605 0.03014486 -0.26011392
000070 fc 1a 24 3d 1f b9 92 3c 1f 58 5c be 1f 8e 4e 3b
       0.040064797 0.017910538 -0.2151799 0.0031517816
000080 6f 21 4d bd a4 54 1f bc 2f ee 42 bc 17 ea 56 be
       -0.050080713 -0.00972477 -0.011897608 -0.20987736
000090 0e 3b c2 3c 6f b0 d1 3d fc 80 15 3e a4 24 dc bd
       0.0237098 0.1023873 0.14599985 -0.10749176
0000a0 dd 0b ea bd 7e 02 f0 3c bb bd 06 bd 7a df 34 3d
       -0.11428044 0.029298063 -0.032895785 0.044158436
0000b0 69 65 03 bb 82 a3 1d bd 31 40 61 bd ea 02 c1 3d
       -0.0020049459 -0.03848601 -0.05499286 0.09424384
0000c0 fa ab 9c bb 7d a7 c0 bb c6 ec ad bb ea 22 bb bd
       -0.0047812434 -0.005879341 -0.0053077666 -0.09137519
0000d0 70 8f bf 3d 97 2d 44 bc f4 40 08 3e 32 d9 b0 3c
       0.093535304 -0.01197376 0.13306028 0.021587942
0000e0 f5 ff 4c be e5 5b 03 be 0e 6a 21 be e4 b5 b7 3d
       -0.20019515 -0.12828024 -0.15763113 0.0897024
0000f0 e4 dc 4e 3d 35 d9 4d bd 6e 8d 16 3d 60 83 d3 3b
       0.050503626 -0.050255973 0.03675597 0.00645487
000100 45 42 15 3e 4a 9a 29 bc f1 94 0d 3e 69 05 9b 3b
       0.14576061 -0.010351727 0.13826348 0.0047308696
000110 68 e8 92 3d af 90 4a 3c f6 84 e6 38 f5 b6 4b 3e
       0.07173234 0.012363597 0.000109920205 0.19894011
000120 86 54 12 3d 33 11 2d 3d 5d bb ee bc 5b 78 db bc
       0.03572514 0.04225273 -0.029142076 -0.026790788
000130 1a a0 43 3d d1 cc 0e bd f5 d7 89 3b 80 00 32 3e
       0.047760107 -0.034863297 0.0042066523 0.17383003
000140 b7 a1 30 bd b5 1d b7 bd 9b fd 63 3b 38 d1 0b 3e
       -0.043122973 -0.08941213 0.0034788612 0.1365403
000150 e4 b6 a2 bc 95 b2 34 3e 1f 6c 5a be 0f 85 07 3e
       -0.0198626 0.17646249 -0.21330307 0.13234352
000160 dc 8d c7 bd 75 31 f5 bd 0e 97 bb bb 5c b1 0f be
       -0.097438544 -0.11972324 -0.005724794 -0.14032501
000170 74 93 dc bd f6 f3 bf bc ca 17 35 be 59 a4 4f bc
       -0.10770312 -0.02343176 -0.17684856 -0.012673461
000180 3a fe da bd 14 d4 c5 bc 84 1e d6 bd e3 a4 9f bd
       -0.10693021 -0.024148978 -0.10455039 -0.077951215
000190 14 14 3c bd b8 6d 36 be 0a b4 0f bd f0 70 65 bd
       -0.045917585 -0.17815292 -0.035083808 -0.05601591
0001a0 25 24 29 3d 6c 32 1b be cd 6c 20 be 69 43 9d 3d
       0.041294236 -0.15155953 -0.15666504 0.07678873
0001b0 0b 86 a3 be 96 26 4b bc 15 81 41 be 97 8e 80 bd
       -0.31938204 -0.012399336 -0.18896897 -0.06277197
0001c0 ad be 3c 3c 3c b8 c8 bb 04 31 01 bc 73 06 61 bc
       0.01152007 -0.006125478 -0.007885221 -0.013734448
0001d0 f9 bc 5b bd 10 f7 96 bd 16 c0 89 3c 62 e8 dc 3d
       -0.053647015 -0.07371342 0.016815227 0.10786511
0001e0 11 b3 20 3e fb 07 21 3e f0 80 b9 3c 8d 7a 3f 3e
       0.15693308 0.157257 0.02264449 0.18699093
0001f0 bc 81 aa 3d 50 ac 68 3d c5 c6 75 bc 61 26 22 3c
       0.08325526 0.056804955 -0.015001004 0.009896846
000200 1b ce f4 bd d7 ca ad 3e 6e 6f c7 3d e3 93 92 be
       -0.11953374 0.33943817 0.097380504 -0.28628454
000210 0c cc dd bc cc e2 e4 bc 8e 64 c2 bd 73 a7 3e 3c
       -0.027074836 -0.027940176 -0.094918355 0.011636603
000220 db e1 29 3d 86 30 70 3e 4d d7 b0 bd 65 5d 87 3d
       0.04147516 0.2345601 -0.08634815 0.066096105
000230 39 42 b0 3d 43 c7 79 3d 19 b5 59 be 6a 1e 89 bd
       0.08606381 0.060981046 -0.2126049 -0.06695254
000240 b1 ba 75 3c 5c 03 c3 3d 54 6c 93 bc cd d8 bb bb
       0.014998124 0.09522125 -0.01799599 -0.005732632
000250 16 a0 be 3d 90 13 26 3e d3 cd 48 be 98 e1 af 3d
       0.09307878 0.162184 -0.19609766 0.085879505
000260 a5 d1 4d 3d 89 7e 27 be 3c 73 c7 3e 9b 7b f9 3d
       0.05024876 -0.16356863 0.38955104 0.12181779
000270 11 12 96 3c 6a d6 9d 3d c0 c9 c8 bd 2a 52 6a bc
       0.018319162 0.07706912 -0.09804106 -0.014301816
000280 9f 15 b3 bd 74 3c cb 3c 1d 44 0b 3e 29 30 16 3d
       -0.08744358 0.0248091 0.13600202 0.036667023
000290 3b 81 a2 3c 14 a5 0f 3d 05 2a 3f bd 52 09 a7 3d
       0.019837013 0.03506954 -0.046670932 0.081560746
0002a0 85 7d ae bd 79 6d 70 3c d6 97 8e bd 29 2f 23 3d
       -0.08520035 0.014674538 -0.06962554 0.039839897
0002b0 09 e6 5d bc c3 06 96 3c 2a 42 e2 3d 1a 7d 07 be
       -0.013543614 0.018313771 0.11047776 -0.13231316
0002c0 28 32 1c bc 30 6d 75 bd 8f b3 91 3d e9 d3 a6 3c
       -0.009533443 -0.059918582 0.07114326 0.020364719
0002d0 8f 42 c9 bd f9 00 9a 3c 00 b4 0d be 2a 94 59 3e
       -0.09827148 0.018799292 -0.13838196 0.21247926
0002e0 f1 17 a7 3e 6d db 7a bc 40 7d a5 bd f8 42 33 3c
       0.32635453 -0.015311104 -0.0808053 0.01094126
0002f0 0d 7f a1 bb d4 2f c3 bb 20 d5 44 bc 72 cb 90 3d
       -0.0049284757 -0.0059566293 -0.012013704 0.07070054
000300 bf 18 ef bd f2 b4 dd 3c a0 79 35 bd cd 0b c8 bc
       -0.11674642 0.02706382 -0.044305444 -0.02441969
000310 5d 1e 08 bd 34 59 96 3d 06 49 28 bd f6 c0 4f 3e
       -0.03323208 0.07341233 -0.041085266 0.20288453
000320 3b 3c ba bd b6 54 a5 3c c2 c2 16 bd fe 19 91 be
       -0.09093519 0.020181995 -0.03680683 -0.28340143
000330 d6 c0 0f 3e 3b db df be f1 1b b5 3d cc 82 6b be
       0.14038405 -0.43721947 0.0884322 -0.22999114
000340 2a 4b 87 bd 9e 51 38 bd 79 a8 8a bc 0c 79 b4 bc
       -0.06606133 -0.04499971 -0.016926037 -0.022030376
000350 02 28 78 3e 97 09 54 3e bc 14 c6 3d aa f9 25 3d
       0.24234012 0.20706783 0.096719235 0.0405213
000360 48 bd 25 bd 94 21 4b 3c 59 bb 37 3d f7 42 3f bd
       -0.040463716 0.012398142 0.044856403 -0.046694722
000370 90 6b 09 3c 23 c1 38 be 8a df 93 3e 8f 62 90 3c
       0.008387461 -0.18042426 0.28881484 0.017625121
000380 ac 68 24 3d db 6e 16 3e d0 00 2d bd 46 d6 7d bd
       0.040138885 0.14690726 -0.042237103 -0.061971925
000390 1a 2f 4b 3e 06 bf bf 3d 63 21 8e 3c 65 da 0e 3e
       0.19842187 0.09362607 0.017349904 0.13950498
0003a0 de 56 47 be 8f 19 ba 3d 03 1f 8a 3e 50 0b d6 bd
       -0.19466731 0.09086906 0.26976785 -0.104513764
0003b0 6a f2 13 3e 78 82 b8 bb 6f 9f 4d 3d 61 13 49 be
       0.14447942 -0.0056307875 0.050200876 -0.19636299
0003c0 dc 20 80 3b 6b b6 ff bb 0a cc 22 3d ee 7d 3c bc
       0.003910167 -0.0078037283 0.039745368 -0.011504633
0003d0 d2 ba ab 3d 5b a2 88 be 5d 25 2d 3b 66 c0 99 3d
       0.083852425 -0.26686367 0.0026419975 0.075074
0003e0 f5 20 65 bd 50 44 90 be ad 31 12 be b2 99 51 be
       -0.055939633 -0.28177118 -0.14276762 -0.20468786
0003f0 d2 37 c9 bc df 91 93 bc 2a f8 04 be cb 63 a9 bc
       -0.02456275 -0.018013893 -0.12985292 -0.020677468
