test/models/squeezenet1.0_nhwc/weights/fire2_e1x1_kernel.npy (npy, 4176 bytes, 1 tensors)

array f4 [1, 1, 16, 64]
-0.04552511 -0.051786613 -0.026267735 -0.17210537 -0.09936105 0.2880453 0.12238965 -0.10077898
-0.32087082 -0.06629369 -0.04424487 0.013217161 -0.10793572 0.10542562 -0.06649216 0.8242893
0.10450222 -0.017313857 -0.31009853 -0.20303342 -0.024945969 0.012795661 -0.1530679 0.104852214
-0.22420396 -0.02516137 -0.091971174 0.15779501 -0.014322617 0.2120825 0.055760235 0.15006535
0.10718704 -0.27096477 0.034113478 0.31739205 0.22067395 0.0655923 -0.26159275 0.014224106
0.24207221 -0.31666604 0.18026264 0.010025871 -0.07351839 -0.16754083 -0.3552112 0.052477937
-0.30461487 0.044328693 -0.007261895 0.0061875377 0.022552116 0.27389815 0.014803859 -0.25311133
0.030456187 -0.16396675 0.009665057 -0.04057435 -0.028961085 -0.13633485 0.09900914 0.010658798
0.0734641 0.09141405 -0.043351784 -0.07341758 -0.0597844 0.3176442 0.18099156 -0.045174118
-0.21285272 -0.03675437 -0.41255945 0.06636037 -0.07032274 0.116980456 -0.13399872 -0.8676094
0.18485875 -0.05554882 -0.12916394 -0.013357473 0.094854675 -0.010164078 -0.08488583 0.28546518
-0.36276925 0.42799655 -0.05736661 0.12035216 -0.06544567 -0.12977798 0.028761335 -0.33494475
0.3370692 -0.23969759 -0.11860124 0.27447397 0.32558563 0.050588667 -0.7874459 -0.017510043
0.29505613 -0.40908992 0.09710486 0.16981316 0.0057553253 -0.24090832 -0.07852986 0.02585408
0.058580156 -0.039496154 0.08511332 0.0124274995 -0.056478612 0.1854278 -0.0044705523 -0.32209408
-0.010968219 -0.3015904 0.03874549 -0.3313861 -0.06289883 0.056642104 0.108523786 0.07326475
0.18979308 0.18184511 0.22609216 0.3609682 0.42250136 0.5893759 -0.12774278 0.16108926
0.85924184 -0.27909523 -0.090746 0.2010735 0.22106363 0.022887168 0.40257388 0.38067648
-0.4505636 0.14790729 0.15952946 -0.005870301 0.20639211 0.404519 -0.16656718 0.22294717
0.33673736 0.16084874 0.002061335 0.024638996 0.09017246 -0.1059368 -0.09911984 -0.0497818
0.26537204 0.2839847 0.4515392 0.035442017 -0.06788132 0.003177737 0.13316704 -0.29706144
-0.12685534 -0.68493366 -0.24361469 0.012918871 0.4228441 0.22291335 0.24372183 0.29376137
0.25199604 -0.13795376 -0.42477632 -0.020817451 0.028517174 -0.7587377 -0.24497184 0.14350578
-0.31901985 -0.27192688 0.25351447 0.61200243 -0.44643253 0.46429995 0.2346834 0.1296354
-0.13664715 0.014664492 -0.050292984 0.0686718 -0.04913787 -0.23815303 0.111441575 0.050960097
0.1689238 -0.0020942062 0.073992535 0.09428678 0.1415871 -0.14963731 0.015198203 0.3015753
-0.12561661 -0.07990724 1.467664 -0.039614104 0.25920603 -0.07392322 -0.0031191427 -0.1901606
0.062503844 -0.020142915 0.169827 -0.55487156 0.11819179 -0.11745705 -0.31100404 0.09240348
-0.068860635 0.23664457 0.29051995 0.018174622 -0.2398272 -0.04254258 -0.073230825 0.15421665
0.59774673 0.18659927 -0.686357 -0.23265742 0.08015254 -0.22551529 0.13777916 -0.03653158
0.24486879 -0.10951862 0.085735135 0.04322373 0.2072134 -0.21773042 -0.008269271 0.057155855
-0.11686554 0.5278821 0.0936279 -0.1759023 -0.08878585 0.030911982 -0.16194344 -0.066555955
00000000: 8a78 3abd 331e 54bd 6f2f d7bc 643c 30be
00000010: ce7d cbbd ac7a 933e 6da7 fa3d 3665 cebd
00000020: 2e49 a4be fcc4 87bd 1c3a 35bd cb8c 583c
00000030: 670d ddbd 63e9 d73d 0b2d 88bd a004 533f
00000040: 4305 d63d cad5 8dbc 3cc5 9ebe fee7 4fbe
00000050: 7d5b ccbc e4a4 513c d5bd 1cbe c2bc d63d
00000060: b995 65be 381f cebc 625b bcbd 0495 213e
00000070: 69a9 6abc 282c 593e d864 643d bbaa 193e
00000080: e184 db3d e5bb 8abe 93ba 0b3d 3681 a23e
00000090: 5af8 613e 4155 863d 7cef 85be 3a0c 693c
000000a0: c7e1 773e 0d22 a2be c596 383e 8d43 243c
000000b0: cf90 96bd d38f 2bbe 3ede b5be 1bf3 563d
000000c0: 7bf6 9bbe 0192 353d 31f5 edbb d4c0 ca3b
000000d0: 37bf b83c 613c 8c3e e38b 723c cf97 81be
000000e0: 417f f93c e6e6 27be 305a 1e3c 4a31 26bd
000000f0: cc3f edbc 5d9b 0bbe 4ec5 ca3d 3da2 2e3c
00000100: 5974 963d 4a37 bb3d a491 31bd f55b 96bd
00000110: 7de0 74bd 43a2 a23e da55 393e 7f08 39bd
00000120: 10f6 59be c08b 16bd fe3a d3be f2e7 873d
00000130: 5e05 90bd 7393 ef3d f636 09be a61b 5ebf
00000140: 9d4b 3d3e 2987 63bd 8d43 04be 4dd9 5abc
00000150: 2b43 c23d 3c87 26bc 9fd8 adbd 7e28 923e
00000160: e4bc b9be 5d22 db3e 40f9 6abd 317b f63d
00000170: 6108 86bd 85e4 04be e49c eb3c e17d abbe
00000180: 5694 ac3e 4973 75be 35e5 f2bd da87 8c3e
00000190: 29b3 a63e 1036 4f3d 0e96 49bf 3971 8fbc
000001a0: 9911 973e 3c74 d1be eade c63d 80e3 2d3e
000001b0: 2b97 bc3b acb0 76be 43d4 a0bd f0cb d33c
000001c0: bff1 6f3d b8c6 21bd e44f ae3d b69c 4b3c
000001d0: 1e56 67bd c9e0 3d3e b67d 92bb 84e9 a4be
000001e0: 0bb4 33bc 0f6a 9abe 97b3 1e3d 70ab a9be
000001f0: 1ad1 80bd 8d01 683d b841 de3d d40b 963d
00000200: 1e59 423e 9b35 3a3e b484 673e d3d0 b83e
00000210: 1952 d83e 57e1 163f 01cf 02be 95f4 243e
00000220: 46f7 5b3f 92e5 8ebe 0ad9 b9bd 36e6 4d3e
00000230: 815e 623e df7d bb3c 2a1e ce3e 07e8 c23e
00000240: 46b0 e6be 0275 173e b15b 233e a75b c0bb
00000250: 7458 533e 1d1d cf3e 9690 2abe 434c 643e
00000260: d768 ac3e 88b5 243e 7617 073b b8d7 c93c
00000270: 57ac b83d 65f5 d8bd 58ff cabd 00e8 4bbd
00000280: d8de 873e 7166 913e 2530 e73e a62b 113d
00000290: 5d05 8bbd 9441 503b f15c 083e 7018 98be
000002a0: 5ee6 01be d057 2fbf 2176 79be aca9 533c
000002b0: 067f d83e 6643 643e 3792 793e e467 963e
000002c0: a005 813e c043 0dbe 487c d9be 5c89 aabc
000002d0: d99c e93c a23c 42bf e6d9 7abe 2ef3 123e
000002e0: 9256 a3be 003a 8bbe a6cc 813e 31ac 1c3f
000002f0: ce92 e4be b9b8 ed3e d850 703e 24bf 043e
00000300: 3bed 0bbe 5643 703c 0400 4ebd cda3 8c3d
00000310: cb44 49bd 63de 73be 7b3b e43d 89bb 503d
00000320: 5cfa 2c3e f33e 09bb 6689 973d 6d19 c13d
00000330: 35fc 103e 863a 19be e201 793c 1468 9a3e
00000340: a4a1 00be 68a6 a3bd 6adc bb3f 6642 22bd
00000350: a7b6 843e 0f65 97bd 886a 4cbb 76b9 42be
00000360: 0402 803d c102 a5bc 21e7 2d3e 100c 0ebf
00000370: 8a0e f23d 528d f0bd ec3b 9fbe 093e bd3d
00000380: ce06 8dbd f452 723e 08bf 943e f2e2 943c
00000390: 4395 75be 2141 2ebd 0bfa 95bd f8ea 1d3e
000003a0: ee05 193f e113 3f3e 18b5 2fbf bf3d 6ebe
000003b0: 0427 a43d 7bed 66be fb15 0d3e 23a2 15bd
000003c0: e2be 7a3e 4c4b e0bd e795 af3d 5e0b 313d
000003d0: c02f 543e b9f4 5ebe d67b 07bc 421c 6a3d
000003e0: 3357 efbd 4823 073f fcbf bf3d bc1f 34be
000003f0: 5bd5 b5bd 203b fd3c 80d4 25be 7d4e 88bd
