test/models/squeezenet1.0_nhwc/weights/fire7_squeeze_kernel.npy (npy, 73808 bytes, 1 tensors)

array f4 [1, 1, 384, 48]
00000000: 73fe ca3d 77e6 a9bc 037a 4abe 35f9 c2bc
00000010: aa12 12be e381 753e 5daf c7bd 27ae c03d
00000020: c92a 263e 7536 6a3c 3896 a63c 8f7a 253e
00000030: 70fe 723b 3ae5 a6bd b7b5 82bd 5bb7 2dbd
00000040: 05fc 06be 96ea 063d a868 4e3c 943b 8f3d
00000050: e1a0 d4bd 1eb3 e23d 6896 a73d 5f86 9abd
00000060: b5fd b63d 059f c73d 65c8 9b3d 8e94 25bd
00000070: d671 323e 901d 6abd a732 b8bc 839a aabc
00000080: 814c aabd 1a9e b4bd 3f50 01bd feb6 89bd
00000090: af16 1bbe 25c0 0a3e e796 8b3e fef7 0dbe
000000a0: 867e 0f3e 9043 0c3d 635a 0cbe e9b0 fc3d
000000b0: 6433 b23d bcc1 a73c 9d36 173e a881 753c
000000c0: 43c8 8dbc ca31 38be 32e0 613d f075 553d
000000d0: 39e4 483d 41b3 0bbe 8e42 183d 8ee8 3c3e
000000e0: 020a 5dbe 9d7c 15bd 7e71 84bd 3c00 46bd
000000f0: 328d c73c 5899 10be c9ff 0ebe 8e61 b9bd
00000100: b211 833d fc73 c33c 795a 2f3d 26d9 25bd
00000110: d57c e03d 5e73 613d 5b32 5d3d 6735 e53c
00000120: 00a6 3f3e 344f 25bc eab9 94bd 7de2 1c3d
00000130: 9f7b 0c3e 2053 71bc a551 eb3b 2fdb 473d
00000140: 7939 473e 306e 043d c18a 693e abf6 04bd
00000150: febe 023e c8ae 06bd eec1 0a3e 9d91 bebb
00000160: 29cd 603c 388d 60bc ee22 d3bc af96 8bbc
00000170: 65ca b43d cb6f b33c af4a 1a3d d4f7 9bbd
00000180: abca e83d 8ed8 613e 4f37 ce3d 5c6a 203e
00000190: 22fc ff3d ffbf dfbd 5bfd e8bc e7dd 753e
000001a0: 94d6 d8bd d000 fcbc 9522 e93d 0d5c 72bd
000001b0: 438f ed3c 608e b7bd c487 97ba 465d 693c
000001c0: 8668 bd3c 825a c13c 6732 933d 0f9b 983d
000001d0: 74ea 233d 1743 09bd c3de ffbd 4b21 8d3e
000001e0: ab9d 88bd 50be cbbd 6b61 53bd 8426 c03b
000001f0: 6215 5d3d 6464 ef3d 974a 073d a982 9d3d
00000200: 8c20 a03b 7f9a 46be badf 6d3e f8ea 24bd
00000210: 7c94 2c3d e525 ee3d 2258 a1bd 2c78 9f3d
00000220: ed01 f4bd 391b ab3d 9393 3dbd f7e5 1e3c
00000230: 7514 423e 57e7 943d d290 8f3e 467f b3bb
00000240: f416 3cbd 82da 133c 6b78 253d fcc2 8f3d
00000250: 89a0 103c 3bce 20be 9e97 66bd e985 dbb9
00000260: 70ab bf3d 28f1 bc3d c2e6 c8bc 8057 07bd
00000270: 4c23 0c3e a847 993c 88e7 013d 7476 56be
00000280: e602 0fbe 44a3 66bd a67e 10bc 16f0 353d
00000290: 131f 14bd fe76 2b3e 9fc3 0f3e 8923 613e
000002a0: 35c0 f6bd 7228 6b3d f0f2 663d 8987 533d
000002b0: cd6a 81bd ebae 68bc 0381 043e ee68 f23c
000002c0: e37b 903d 4414 a6bd 57cb 7abe 1e45 953d
000002d0: 5b90 383d 51c5 0bbe 2d58 bc3d ffed 423c
000002e0: f81e 2bbd 9c6e ccbd a43c 6b3d 9c94 dabd
000002f0: 554a ac3e 7f55 90bc 7086 20bc 5287 3ebe
00000300: edf0 333c b773 053c 5af4 b8bb d70c 493e
00000310: 25b7 723c cecf 013e 405f 0cbe 98e3 3f3d
00000320: dbd7 4f3d 6cf1 9c3d 1f14 783c 8793 b83c
00000330: 135a 443b bf05 a03d 4301 793d 2e48 e73d
00000340: 5bec 9abd c501 c9bb a1da 943b 7157 c7bc
00000350: 65b6 e03d 0f9a 49bd e7c6 bcbc a631 bfbd
00000360: d54e 4ebd 8af6 883d c766 b83b b4eb 1c3e
00000370: 41cb e9bd ac39 c73e 8a5a 1bbd 1f32 0bbe
00000380: aea5 1c3d fd90 f9bd b801 943c 6433 1a3e
00000390: 1362 a53d 9721 823d 2867 59bd 23c0 28bd
000003a0: e8e0 3a3e 151a bebb eb2e c6bb 7dc5 0d3e
000003b0: b0e1 60bd f084 d23c aa97 8abd eb4c 2a3a
000003c0: 7a65 de3c 100e 5abd e029 5dbb 8a43 1e3e
000003d0: 5ddc a5bc 5e49 eebc c3bd 13bd 59bf 1abd
000003e0: 0623 0fbe 0a92 803d 2aad 9fbc f29c 31bd
000003f0: 3534 46be 39c6 3e3d 1614 5dbd 2138 d73b
0.099118136 -0.020739777 -0.19773106 -0.023800472 -0.14264932 0.23975329 -0.09750245 0.09408217
0.16227259 0.01429521 0.020335302 0.16160034 0.0037077926 -0.0814919 -0.063823156 -0.04241119
-0.13182075 0.032938562 0.012598194 0.069937855 -0.10382248 0.1106932 0.081829846 -0.075451605
0.089351095 0.097471274 0.076065816 -0.040424876 0.17426237 -0.0571571 -0.02248509 -0.02082563
-0.08315373 -0.08819218 -0.03157067 -0.06724356 -0.15145372 0.1354986 0.27263567 -0.13864133
0.14013109 0.03424412 -0.13706355 0.123384304 0.08701208 0.020478122 0.14766927 0.014984526
-0.017307406 -0.17987743 0.05514545 0.052114427 0.049045775 -0.13642599 0.037172846 0.18448088
-0.21585849 -0.036495794 -0.064669594 -0.048340067 0.02435932 -0.14120996 -0.13964762 -0.0905181
0.063998595 0.023859017 0.04281089 -0.040490292 0.1096131 0.055041663 0.0540031 0.027979566
0.18715668 -0.010089684 -0.07262023 0.038301934 0.13719033 -0.014729291 0.0071813636 0.048793014
0.19455518 0.032331645 0.22806837 -0.032461803 0.1276817 -0.03288153 0.13550541 -0.0058156983
0.013720789 -0.013705544 -0.025773492 -0.017039625 0.08827666 0.021903893 0.03766888 -0.07615629
0.11366781 0.22055265 0.10069143 0.15665573 0.124992624 -0.10925292 -0.028441122 0.2401043
-0.105878025 -0.030762106 0.11383549 -0.059169818 0.028998977 -0.08962703 -0.0011560847 0.0142434295
0.02312113 0.023602728 0.07187348 0.0745145 0.040018514 -0.033511247 -0.1249366 0.27564463
-0.06670698 -0.099484086 -0.051606577 0.0058639664 0.05397547 0.1168907 0.03303012 0.07690937
0.0048866924 -0.19394873 0.23229876 -0.040263146 0.042133793 0.116283216 -0.07878138 0.07786593
-0.1191443 0.08354802 -0.046283316 0.009698383 0.18953116 0.07270687 0.28040177 -0.0054778187
-0.045920327 0.009024264 0.040398043 0.07019612 0.008827337 -0.1570367 -0.056296937 -0.00041870706
0.09358871 0.092256844 -0.024524096 -0.03304243 0.1368534 0.018710926 0.031714946 -0.20943624
-0.1396595 -0.056308046 -0.008819258 0.044418417 -0.036162447 0.1674461 0.14039467 0.21986212
-0.12048379 0.05741162 0.056384027 0.05164293 -0.06319199 -0.01420186 0.12939839 0.02959105
0.070548795 -0.08109334 -0.2449163 0.07288574 0.045059543 -0.13649489 0.09196506 0.011897563
-0.04177758 -0.099820346 0.05743088 -0.10672876 0.3365046 -0.017618893 -0.009797677 -0.18606308
0.010982734 0.008145264 -0.0056443634 0.19633804 0.014814173 0.12676927 -0.1370821 0.04684791
0.050742965 0.07663235 0.015141516 0.022531284 0.0029960915 0.07813596 0.06079222 0.11293064
-0.075646125 -0.006134244 0.004542664 -0.024333687 0.10972289 -0.049219187 -0.023044063 -0.093356416
-0.05036815 0.066876486 0.0056274864 0.15324289 -0.11415721 0.38911188 -0.03792814 -0.13593338
0.038243942 -0.121858574 0.018067226 0.15058666 0.08075347 0.06354063 -0.053076893 -0.04119886
0.18249857 -0.005801449 -0.0060480735 0.13844867 -0.054902732 0.025698155 -0.06767209 0.0006496447
0.027147997 -0.053236067 -0.0033746883 0.15455452 -0.020246679 -0.029087719 -0.036069643 -0.03778014
-0.13978204 0.06277855 -0.01949175 -0.043362565 -0.19355853 0.04657576 -0.053974234 0.0065679704
