test/models/squeezenet1.0_nhwc/weights/fire9_squeeze_kernel.npy (npy, 131152 bytes, 1 tensors)

array f4 [1, 1, 512, 64]
0	0xbea21086	-0.3165323
1	0x3d967726	0.073469445
2	0xbe384ac7	-0.17997275
3	0xbdca9b91	-0.09892953
4	0xbda78186	-0.081790015
5	0xbd51b9de	-0.051202647
6	0x3d0189bc	0.031625494
7	0x3dbb4c8e	0.09145461
8	0x3d9d71f2	0.07687749
9	0x3e0f8b3c	0.14017957
10	0x3e285c23	0.16441397
11	0xbdb2939f	-0.08719563
12	0x3e2fcddf	0.17168377
13	0x3ea166b5	0.31523672
14	0x3e06de8c	0.13170832
15	0x3d17a1dd	0.0370196
16	0xbcc4b099	-0.02400999
17	0xbdc4b570	-0.09604919
18	0x3d8dfb3b	0.06932684
19	0x3dac8aa8	0.08424884
20	0xbd8ca445	-0.068672694
21	0xbe07a0e2	-0.13244966
22	0xbcffd9d2	-0.031231795
23	0x3db0d9fd	0.08635328
24	0x3e36dd0c	0.1785776
25	0xbd4bd241	-0.04976106
26	0x3d991da2	0.07476355
27	0x3ddaae1e	0.106777415
28	0x3d3b019c	0.04565583
29	0xbdfeafd4	-0.1243588
30	0xbbccc21b	-0.006248725
31	0xbe30f65e	-0.17281482
32	0x3d3590a7	0.044327404
33	0x3e2592a4	0.1616922
34	0xbea1e528	-0.31620145
35	0xbe22046f	-0.15822004
36	0x3d96f270	0.0737046
37	0xbd718d2f	-0.058972534
38	0xbe0bc9b6	-0.13651165
39	0x3c17a408	0.009255417
40	0xbdcfe2df	-0.10150694
41	0xbe3566c2	-0.1771498
42	0x3e5e3492	0.21699741
43	0xbe1271ea	-0.14301267
44	0xbddff919	-0.109361835
45	0xbdd3d96d	-0.10344205
46	0x3e19dfeb	0.15026824
47	0x3d9992c3	0.07498696
48	0x3c892e9b	0.016745856
49	0xbc9fd14d	-0.019508982
50	0x3df69d19	0.12041683
51	0x3e0500b2	0.12988546
52	0x3cb3f3d2	0.021966849
53	0x3cd5c8d5	0.02609674
54	0xbe25ad3f	-0.1617937
55	0x3d8264f0	0.063669086
56	0x3d428b49	0.047496114
57	0xbdddefc2	-0.10836746
58	0xbb1f4f80	-0.002430886
59	0x3d60f2de	0.054919116
60	0xbdecf251	-0.11569656
61	0x3e2972f8	0.16547763
62	0x3c60b0d3	0.013714033
63	0xbd616754	-0.055030182
64	0x3d4a582d	0.049400497
65	0xbc17b869	-0.009260275
66	0xbcb8e2c6	-0.022569072
67	0x3da710a0	0.08157468
68	0x3e7f750b	0.24946992
69	0xbd1d69fc	-0.038431153
70	0xbdf8ca47	-0.12147956
71	0xbde10bf7	-0.1098861
72	0xbd8445b1	-0.06458605
73	0xbe827d54	-0.25486243
74	0xbd8e7287	-0.06955438
75	0x3d6648b7	0.05622169
76	0xbd30c1c2	-0.04315353
77	0xbe139219	-0.144112
78	0xbd8ee2dc	-0.06976864
79	0x3d96213d	0.073305584
80	0xbdad4725	-0.08460835
81	0x3d9fd098	0.07803458
82	0xbe4d4624	-0.20046288
83	0x3e8d79ce	0.27631992
84	0x3dc1236c	0.09430584
85	0x3d65938d	0.05604892
86	0xbc87ebb5	-0.016591886
87	0xbe2088c1	-0.15677167
88	0xbdf2c84f	-0.11854612
89	0x3e4eb747	0.20187102
90	0xba211898	-0.00061453274
91	0xbd6d3386	-0.057910465
92	0xbe0fb4b3	-0.14033775
93	0x3da414fb	0.08011814
94	0x3df7702f	0.12081944
95	0xbdad3e52	-0.08459152
96	0x3e07862a	0.13234773
97	0xbcc4557c	-0.023966543
98	0xbd38f2b7	-0.045153346
99	0xbe19bcc6	-0.15013418
100	0x3ef89240	0.4854908
101	0xbde4d3cb	-0.11173209
102	0xbd92d374	-0.07169238
103	0xbe554874	-0.2082842
104	0x3d0fe2b7	0.03512832
105	0x3e99d992	0.30048805
106	0x3dcaaed7	0.09896629
107	0x3df126bd	0.11774967
108	0x3e1358ee	0.14389393
109	0x3d453119	0.048142526
110	0x3d8df80b	0.06932076
111	0x3eb99f08	0.36254144
112	0xbc94b50e	-0.01815274
113	0x3e0da6fe	0.13833234
114	0x3dee0fb5	0.1162409
115	0x3db26efb	0.08712574
116	0x3d8457a3	0.06462028
117	0x3e31e4a0	0.1737237
118	0x3e0ad03e	0.13556
119	0xbe21f562	-0.15816262
120	0xbea9956d	-0.33121815
121	0xbdb14691	-0.086560376
122	0x3b0a6f98	0.0021123644
123	0xbe313d21	-0.17308475
124	0x3c1e7557	0.009671531
125	0xbca42cd6	-0.02004091
126	0xbd315c76	-0.04330107
127	0xbd3f3b2a	-0.046687283
128	0xbe21ce17	-0.15801273
129	0x3d8618b3	0.0654768
130	0x3dd277a4	0.10276726
131	0xbde0a5c0	-0.10969114
132	0x3d1f57a6	0.038901947
133	0xbdff05aa	-0.12452252
134	0xbdc38522	-0.095468774
135	0x3e64a74e	0.22329447
136	0xbe71eb79	-0.23624982
137	0x3cb4cb4b	0.022069594
138	0xbc0addec	-0.008475762
139	0x3db72b2c	0.08943781
140	0xbe327e1a	-0.17430916
141	0xbe30e09e	-0.17273185
142	0xbe2f41ec	-0.17114991
143	0xbdf0c106	-0.11755566
144	0x3d812e7f	0.063076966
145	0x3e658874	0.22415334
146	0xbdbbfdcf	-0.091792695
147	0xbeab92ea	-0.33510524
148	0x3dc4a103	0.09601023
149	0x3d8d374e	0.06895314
150	0x3d8a9e49	0.06768472
151	0x3da2bef7	0.0794658
152	0xbdd085dc	-0.10181782
153	0xbe169225	-0.14704187
154	0xbdd29366	-0.1028202
155	0xbd2b5042	-0.041824587
156	0x3d8ba133	0.06817856
157	0x3ed40dbd	0.4141673
158	0xbe713b38	-0.23557746
159	0xbeab0b6e	-0.33407158
160	0x3ee58151	0.44825223
161	0x3e32432d	0.17408438
162	0xbd087cfb	-0.033322316
163	0x3da4e9f3	0.08052435
164	0xbda0a919	-0.07844753
165	0x3cd896e0	0.02643913
166	0x3e18ff64	0.14941174
167	0xbd0b8eec	-0.034071848
168	0xbd3530a5	-0.044235844
169	0xbe01888d	-0.12649746
170	0xbdcc0278	-0.099614084
171	0xbd1a238f	-0.037631568
172	0xbd2aad4b	-0.04166917
173	0xbc0ce4eb	-0.0085995
174	0xbe1ad307	-0.15119563
175	0x3d91bfb4	0.071166426
176	0xbd98a261	-0.07452846
177	0xbdfc33c4	-0.12314561
178	0xbe0d580a	-0.13803115
179	0x3e474ce2	0.19462922
180	0x3dcdd67d	0.10050676
181	0x3e869ea7	0.26292917
182	0xbe9db9ec	-0.3080591
183	0xbe152960	-0.14566565
184	0x3e62716a	0.22113577
185	0xbd897fc6	-0.06713824
186	0x3dfd788b	0.12376507
187	0x3c8db328	0.017297342
188	0xbe160827	-0.14651547
189	0xbd42fb8f	-0.047603186
190	0xbe474005	-0.19458015
191	0x3ba7dbc8	0.0051226355
192	0x3ca96a3b	0.020680537
193	0x3e606e6f	0.21917127
194	0x3d7723ab	0.06033675
195	0xbda93f4e	-0.082640275
196	0xbe173f34	-0.14770204
197	0x3d4aa807	0.04947665
198	0x3d2600f7	0.040528264
199	0xbe35ffb3	-0.17773323
200	0xbed5f414	-0.4178778
201	0x3e8f874d	0.28032914
202	0x3d49f2e2	0.049303897
203	0x3dc9c9fc	0.098529786
204	0x3e3280d5	0.17431958
205	0x3e007808	0.12545788
206	0x3e272408	0.16322339
207	0x3e060ac0	0.13090038
208	0xbd121dd1	-0.035672966
209	0x3bc455a9	0.005991657
210	0x3eabdbe7	0.3356621
211	0xbd964340	-0.07337046
212	0xbd88c588	-0.06678301
213	0xbde95d65	-0.11394767
214	0x3c548f5b	0.012973632
215	0x3de89a22	0.113575235
216	0xbdcc3167	-0.0997036
217	0x3dff7565	0.12473563
218	0x3e9f7908	0.31147027
219	0xbd0d53d1	-0.03450376
220	0x3cc7990d	0.024364972
221	0x3e19a08d	0.15002652
222	0x3c22b10f	0.009929909
223	0x3e329efe	0.17443463
224	0x3e064b5a	0.13114682
225	0xbe8583a0	-0.26076984
226	0x3cc1f793	0.023677623
227	0x3cdc28bc	0.026874892
228	0xbe56f6e6	-0.20992622
229	0x3df69240	0.12039614
230	0x3e055813	0.13021879
231	0x3e1ed175	0.15509589
232	0xbe1abe54	-0.15111667
233	0x3e3affd1	0.18261649
234	0xbdf6b07a	-0.12045379
235	0xbdacb97d	-0.084338166
236	0x3e0b461e	0.13600966
237	0xbe3492e0	-0.17634153
238	0x3d89b2be	0.067235455
239	0xbde6a865	-0.112625875
240	0xbdb76b35	-0.08955995
241	0x3e579b01	0.21055223
242	0xbe04336e	-0.12910244
243	0x3dffe826	0.12495451
244	0xbd72dd8c	-0.059293315
245	0xbc89c3a6	-0.016816925
246	0x3e499eee	0.19689533
247	0xbd3b2afa	-0.045695283
248	0x3de6cdd3	0.112697266
249	0x3d459532	0.048237987
250	0x3e279dd5	0.16368802
251	0xbd707f62	-0.05871523
252	0x3af7d29f	0.0018907374
253	0xbe01ece9	-0.1268803
254	0xbecb8450	-0.39749384
255	0x3e22d121	0.15900089
