test/models/squeezenet1.0_nhwc/weights/fire6_squeeze_kernel.npy (npy, 49232 bytes, 1 tensors)

array f4 [1, 1, 256, 48]
000000 13 da 85 bb a5 c0 80 bc b5 75 0a bd d4 76 30 3e
       -0.0040848344 -0.01571686 -0.03380366 0.1723283
000010 cf c2 ea 3d b9 4f 72 bd 75 b3 07 be 22 81 44 3d
       0.11462938 -0.05915806 -0.13252051 0.047974713
000020 18 3b 61 3e 60 60 df 3d 7a 2a 03 be 39 54 64 bd
       0.21995199 0.10907054 -0.12809172 -0.055744383
000030 51 a0 12 be 4d fe 7a 3c 83 fe c8 bd cc 7f bc 3c
       -0.14318968 0.015319419 -0.09814169 0.023010157
000040 05 e2 38 bd 3e 17 02 be 44 77 8a 3d d5 91 c4 bd
       -0.045137424 -0.12704179 0.06761029 -0.09598128
000050 1d 6c 42 be c1 08 bf 3b 49 cf cd 3c 32 04 22 3e
       -0.18986554 0.005829901 0.025123255 0.15821913
000060 5e 2c 28 3a 2d 66 1d 3d b4 7d a7 bd 32 21 49 3e
       0.00064153026 0.03842752 -0.08178273 0.1964157
000070 94 ce ec ba 4c ba 98 be 4a ed 94 bd 76 2a 0e 3e
       -0.0018066936 -0.29829633 -0.07271822 0.13883385
000080 9a 14 20 3e 5c 99 aa bc 35 bd ea 3d 5d 81 e5 bd
       0.15632859 -0.02082508 0.114618696 -0.11206315
000090 75 f9 b9 bd d9 da d6 bc a6 ee cc 3d cd 3f 68 be
       -0.09080783 -0.026227402 0.10006456 -0.22680588
0000a0 69 c7 07 bb 54 a7 52 bd 79 ea 31 3e 1e 92 05 be
       -0.0020718223 -0.051429108 0.173746 -0.1304402
0000b0 89 52 77 bd 17 2c b2 3d a0 fe ba bd f1 d2 c7 bc
       -0.060381446 0.08699816 -0.09130597 -0.024392577
0000c0 13 52 28 3d 24 3f b5 bb d4 6c 00 bd f0 6e 05 be
       0.041093897 -0.0055312086 -0.031353787 -0.130306
0000d0 83 e2 a8 be 5f 60 0f 3e 0c a8 cf 3d 71 07 30 3e
       -0.32985315 0.14001606 0.10139474 0.17190339
0000e0 80 9b e8 3d 98 22 c3 3c 0d c0 d6 bd 85 63 a2 3d
       0.11357784 0.023820207 -0.104858495 0.07929138
0000f0 0a 48 f1 bc b2 2b 95 3e 40 13 b5 3d 52 d7 7b bd
       -0.029453296 0.291349 0.08841562 -0.061484642
000100 3c 4f db bd d2 2a 9e bd 93 b7 2a 3d 07 4a 37 bc
       -0.10708472 -0.07723011 0.041678976 -0.011187083
000110 d3 f9 04 be f1 14 18 bd 8d 46 ea bd 7a a3 38 bd
       -0.12985925 -0.037129346 -0.11439238 -0.04507778
000120 c1 67 10 bc 33 71 87 3c 92 ab e9 3d b5 e0 a5 3b
       -0.008813799 0.01653347 0.114096776 0.0050621876
000130 cd 4d b6 3c 82 3f c2 3d 7a e4 e7 bd 6d 95 11 be
       0.022253895 0.094847694 -0.11322875 -0.14217158
000140 2c ef b4 bd d6 38 db 3d 4a bc a0 3c 7c f7 bb 3c
       -0.08834681 0.107042 0.019621033 0.022945158
000150 46 14 ad 3c 5c 12 08 3e 4b 9a 3e bd 43 a5 f1 3c
       0.021127831 0.13288254 -0.046533864 0.029497748
000160 47 82 bb 3d 9d d9 94 3b 9a 73 a1 bd 55 76 c6 bd
       0.09155708 0.004542543 -0.078833774 -0.09690539
000170 6b b9 da bd 65 92 18 3e 9e f6 37 bd 38 cd a9 3d
       -0.10679897 0.14899595 -0.044912927 0.082910955
000180 98 32 ba 3d 00 99 8f 3d 42 56 87 3e 3b 36 7d bc
       0.09091681 0.07011604 0.26432997 -0.015454824
000190 16 53 eb 3c d2 ac b1 bd a5 42 b9 bc 90 8a 87 3e
       0.028726142 -0.08675541 -0.022614786 0.26472902
0001a0 62 b3 1d be 5d 16 a2 bd 4a 5f 14 3d 5d 11 c1 bd
       -0.1540046 -0.07914422 0.036223687 -0.0942714
0001b0 a7 46 57 bd 01 a0 45 be b0 da 0f 3b 2c 5f 2f be
       -0.052557614 -0.19299318 0.0021950416 -0.17126149
0001c0 89 1b e1 bd 06 7c 20 be c6 ea 0b 3e 16 3d ab bd
       -0.1099158 -0.15672311 0.13663778 -0.083612606
0001d0 73 37 ab 3d 97 b2 25 bd 2b e0 a4 bc 20 96 5b 3e
       0.083601855 -0.04045352 -0.020126423 0.21443987
0001e0 cb 71 f4 bd 75 fc d4 3c 18 92 13 3e 98 00 85 3d
       -0.11935767 0.025999287 0.14411199 0.06494254
0001f0 f9 9f 9e be 21 7f 7e 3c b6 87 10 bd ca 44 9c bd
       -0.30981424 0.01553324 -0.035285674 -0.07630308
000200 54 a2 1b be 27 09 99 bd 79 d4 8a 3d 72 f0 53 be
       -0.15198642 -0.07472449 0.06778807 -0.20697191
000210 d2 e2 b3 3d 9d 27 e9 be 66 4e 48 be 32 19 9f 3c
       0.08783497 -0.45538035 -0.19561157 0.019421194
000220 d3 df af 3d 67 a1 57 3d d4 cd db 3d b5 cb a6 bc
       0.08587613 0.05264416 0.10732618 -0.020360807
000230 1e a1 99 ba 18 14 b0 3c a4 e7 ba bd 78 e6 34 bd
       -0.001172099 0.021493956 -0.09126213 -0.044165105
000240 bf 3c cf 3d 6c c6 88 bd eb 0c a3 3d 7a 26 e2 3a
       0.10119008 -0.06678471 0.07961448 0.0017253899
000250 90 c8 ac 3c 7b 89 29 3e 5d 41 85 3d 17 a6 20 be
       0.02109173 0.16556351 0.06506608 -0.15688358
000260 d7 27 35 be b3 d5 48 3d 15 0c 69 bd 28 04 d4 bd
       -0.17690979 0.049031924 -0.056896288 -0.10352355
000270 76 08 8a bd aa 78 90 be 50 e0 65 3e 84 ce 76 3d
       -0.06739895 -0.2821706 0.2244885 0.060255542
000280 52 a7 92 3d ad 64 a8 bd 3d 6d 17 3e 19 4c 19 3e
       0.0716082 -0.082223274 0.14787765 0.14970435
000290 8c 77 04 bd cf 69 43 bd de b4 76 be dc 9e fe bb
       -0.03234057 -0.04770833 -0.24092433 -0.0077704024
0002a0 24 99 26 3e 1e 5b fc 3c 6e 05 9a bd c2 e7 1f 3f
       0.16269356 0.030805167 -0.07520567 0.6246301
0002b0 7a 75 21 3d 09 4c b9 3d 2b 9e 6a 3e 5b 4e 73 bd
       0.039418675 0.09047706 0.22911899 -0.059400897
0002c0 e7 4d 7f 3c 22 52 1f bd e5 bb 6a bd df 47 6b be
       0.015582538 -0.038896687 -0.057308096 -0.22976635
0002d0 bb 45 ba 3d 42 4f 78 bd a9 c9 4b bd 01 e8 a5 bd
       0.09095331 -0.06062246 -0.049752865 -0.08100892
0002e0 1c 42 ed bd 8d 30 64 bd 23 f7 c1 3d 35 d5 0b 3a
       -0.11584875 -0.055710364 0.09470966 0.00053341995
0002f0 98 34 60 3d 39 03 e8 3d ce 00 a0 bd ba ce 7c 3e
       0.054737657 0.1132874 -0.078126535 0.24688235
000300 d6 10 88 3d 09 7d c8 3d e2 85 22 3e 5b d9 3b be
       0.06643836 0.097894736 0.15871385 -0.18344633
000310 05 f8 04 bd d3 5b 8a 3d c8 e9 d5 bc a4 fb bb bd
       -0.032463092 0.06755795 -0.026112452 -0.09178856
000320 ec fa c5 3d ec 9d 15 3c fb ee 3a bd 94 b2 1e 3d
       0.09667 0.00913189 -0.045638066 0.038744524
000330 d5 ba 48 bd 5c b2 1f 3e 16 b1 2c 3e 90 f5 45 be
       -0.049006302 0.15595382 0.16864428 -0.19331956
000340 4a 90 9b 3d 12 1b 50 3b 0d 92 c4 3d 77 d4 ab 3d
       0.0759588 0.0031754416 0.095981695 0.08390134
000350 5e 27 38 3e ca 6b 89 bd 07 5c 30 bd cd 27 01 be
       0.17983767 -0.06710012 -0.043056514 -0.12612839
000360 1a 75 43 3e 98 62 a1 3e bb 35 e0 3c 43 00 df bd
       0.1908764 0.31520534 0.02736937 -0.10888722
000370 3f ca e5 bb 2a 74 01 bd 1d d2 a2 3d 32 d8 03 3e
       -0.007012635 -0.031604923 0.07950232 0.1287544
000380 16 bc c0 3d 6f 20 0f bd 96 45 8b 3e 14 d1 0c 3d
       0.094108745 -0.03494304 0.27201527 0.03437908
000390 dd 95 5d be 4b 76 9f bd d6 bc 02 bd 96 9c 2a be
       -0.216392 -0.077862345 -0.03191837 -0.16661295
0003a0 b6 d3 d2 bb b7 2b b7 bd 1f 88 27 be 57 29 60 bb
       -0.0064339293 -0.08943885 -0.1636052 -0.0034204328
0003b0 9c 4f b4 3d c3 0b 2d 3e 7a 6f 94 bd 4e 41 1d be
       0.08804247 0.16899018 -0.07247825 -0.15356943
0003c0 6c 31 c4 bd f4 50 74 3d a8 91 08 3d 91 5e de bb
       -0.09579739 0.059647515 0.033342034 -0.0067861755
0003d0 a6 8e 80 3d 22 ea 8d 3d dc 0a 37 3d c7 2e 41 bd
       0.06277208 0.06929423 0.04468809 -0.04716375
0003e0 8e f3 54 be c7 25 35 3e 72 19 ab 3d 05 bd 5b 3d
       -0.20796034 0.17690192 0.08354463 0.05364706
0003f0 15 de b4 bc 10 e4 51 3d af f7 57 bd fe cf 0e 3d
       -0.022078553 0.051242888 -0.052726444 0.034866326
