test/models/squeezenet1.0_nhwc/weights/fire2_e3x3_kernel.npy (npy, 36944 bytes, 1 tensors)

array f4 [3, 3, 16, 64]
0	0x3b646e5a	0.0034855814
1	0xbcda7505	-0.026667127
2	0xbb7617fe	-0.0037550922
3	0xbe746c29	-0.23869385
4	0x3dc3db07	0.095632605
5	0x3c08fea5	0.008361493
6	0xbd2e619b	-0.042573553
7	0x3d37fb94	0.044917658
8	0x3c8052f6	0.015664559
9	0xbd26a9ea	-0.040689386
10	0x3d8236ef	0.06358134
11	0xbdbe49db	-0.092914306
12	0x3ce7483f	0.028232692
13	0x3c8167a3	0.015796488
14	0xba840be0	-0.001007434
15	0xbd03a8fe	-0.032143585
16	0xbe89f768	-0.26946568
17	0x3bf6da5a	0.0075333538
18	0xbc4d9ee0	-0.012550086
19	0xbdc3d889	-0.09562785
20	0xbd29b465	-0.041431803
21	0xbd409f8e	-0.047027163
22	0xbf1f6a0f	-0.6227121
23	0x3d3f370c	0.046683356
24	0x3d0ac9d5	0.03388389
25	0xbd7ecbe6	-0.06220617
26	0xbba0a968	-0.0049030073
27	0x3d225be2	0.039638408
28	0xbc522b38	-0.012827687
29	0xbdb58147	-0.08862548
30	0x3e3b275e	0.18276736
31	0xbc7a3e9b	-0.015273715
32	0x3d410d04	0.047131553
33	0xbd75c225	-0.059999604
34	0xbdc2478d	-0.094863035
35	0x3cd37224	0.025811262
36	0xba76ba6a	-0.0009411933
37	0xbd86df0f	-0.06585514
38	0x3e410d8a	0.18852821
39	0x3e0317d8	0.12802064
40	0xbe60e418	-0.21962011
41	0x3b83e8b7	0.0040255445
42	0x3dfab177	0.1224088
43	0xbd095c92	-0.033535548
44	0x3d1d561b	0.038412195
45	0x3cda4f2d	0.026649082
46	0xbc8ef599	-0.017451094
47	0x3e443d97	0.1916412
48	0xbdee7472	-0.11643304
49	0x3cea1989	0.02857663
50	0xbf0afed9	-0.54295117
51	0xbd3e1983	-0.04641105
52	0x3dc1c1fc	0.09460828
53	0x3dd6ce8e	0.10488616
54	0xbeb01a3c	-0.34395015
55	0xbcfd6ccb	-0.030935666
56	0x3d3dfb0f	0.046382006
57	0xbc95e2a1	-0.018296542
58	0x3dbe482f	0.09291112
59	0x3e219581	0.15779687
60	0x3bae8711	0.0053261598
61	0xbdd849bf	-0.10560941
62	0x3ce81efc	0.028335087
63	0xbd3f830a	-0.046755828
64	0xbc24579d	-0.010030654
65	0xbd680345	-0.056643743
66	0x3d0bff4d	0.03417902
67	0xbe34b1c6	-0.1764594
68	0x3cd2c7d4	0.025730051
69	0x3e317322	0.17329076
70	0xbe45436e	-0.19264004
71	0xbe14707c	-0.14496034
72	0xbd830bb7	-0.06398719
73	0x3dc73e5b	0.0972869
74	0xbd2075cf	-0.03917485
75	0xbc9b3324	-0.018945284
76	0xbda60812	-0.08107008
77	0xbcb10126	-0.021606993
78	0x3d881156	0.066439316
79	0x3ddf35a0	0.108989
80	0xbdcdd618	-0.10050601
81	0x3d9142dd	0.07092831
82	0x3ddadd49	0.10686738
83	0x3ca22431	0.019792648
84	0x3c837f30	0.016051859
85	0x3d47c2ae	0.048769645
86	0x3d65cc38	0.05610296
87	0xbc7d0a37	-0.01544433
88	0xbd31e8fc	-0.04343508
89	0x3d42af7f	0.047530647
90	0x3b6621e5	0.0035115418
91	0xbca8d46d	-0.020609105
92	0xbe8775aa	-0.26456958
93	0xbdc39470	-0.095497966
94	0xbd527007	-0.05137637
95	0x3de231c5	0.11044649
96	0xbe3de5b4	-0.18544656
97	0x3d1c6585	0.038182754
98	0xbdc274d9	-0.09494943
99	0x3a29c2fa	0.0006475892
100	0x3ba385f2	0.0049903328
101	0xbdc77eab	-0.09740957
102	0x3bb9d9b9	0.0056717065
103	0x3de78a05	0.11305622
104	0x3c7c05ca	0.01538224
105	0x3d2e4b86	0.042552494
106	0xbe43309c	-0.19061512
107	0xbc2a08b7	-0.010378054
108	0xbdb1f468	-0.08689195
109	0xbcfe35f1	-0.03103158
110	0x3b317d47	0.0027082728
111	0x3d5fbb41	0.05462194
112	0x3dbb9ccd	0.09160767
113	0xbb9e86cd	-0.004837847
114	0x3e3b9143	0.18317132
115	0x3d729d91	0.0592323
116	0xbe17c934	-0.14822847
117	0x3db47240	0.08810854
118	0x3d09957d	0.03358983
119	0x3e73a78b	0.23794381
120	0x3cc9deae	0.024642315
121	0x3d656ff2	0.056014962
122	0x3e56f3a3	0.20991378
123	0x3d82f24b	0.0639387
124	0xbd8b179f	-0.06791615
125	0xbe03d60d	-0.12874623
126	0xbcad85f8	-0.021182045
127	0x3e203432	0.15644911
128	0x3bae45c8	0.005318377
129	0x3e8345f5	0.2563931
130	0xbd0e45dd	-0.034734596
131	0x3e5ab0ef	0.21356557
132	0xbe307371	-0.17231537
133	0xbe5eeb16	-0.21769366
134	0xbebe717a	-0.3719595
135	0x3d7ebbb1	0.062190715
136	0x3e1091d9	0.14118136
137	0x3d27d411	0.040973727
138	0x3c911253	0.017708933
139	0xbe40772f	-0.18795465
140	0xbe5bb62a	-0.21456209
141	0x3db6e1d3	0.08929791
142	0xbd79103c	-0.060806498
143	0xbe191202	-0.14948276
144	0x3d0527db	0.032508712
145	0xbd943108	-0.072359145
146	0xbd017d1d	-0.031613458
147	0x3e1d3883	0.15353589
148	0xbcae9c0b	-0.021314641
149	0xbd9d9520	-0.07694459
150	0xbe1f6b1e	-0.15568206
151	0x3e55ab4f	0.2086613
152	0x3d801535	0.06254045
153	0xbd4e6acf	-0.05039483
154	0x3db7ef85	0.089812316
155	0xbcd84266	-0.026398849
156	0x3c16047d	0.0091563435
157	0x3d9ffa5f	0.07811426
158	0xbe2c8b2c	-0.16849965
159	0x3c9307a5	0.017947981
160	0xbc3274af	-0.010892077
161	0xbdd501f4	-0.10400763
162	0x3d8c14b1	0.06839884
163	0x3dca8591	0.09888757
164	0xbc4f3989	-0.012647995
165	0x3ca91920	0.020641863
166	0xbd64c45a	-0.055851318
167	0x3e33a509	0.17543425
168	0x3e110dae	0.14165375
169	0xbd87dc79	-0.06633849
170	0xbe59886b	-0.21243446
171	0x3e0ba89e	0.13638541
172	0x3bcfe703	0.0063446774
173	0xbcff9f5a	-0.031203914
174	0x3d4583cf	0.048221406
175	0xbdf4df74	-0.11956683
176	0xbe2f349a	-0.1710991
177	0xbdb03972	-0.08604707
178	0x3e2ff848	0.17184556
179	0x3eef7f6c	0.46776903
180	0x3e87dc39	0.26535204
181	0xbdac298b	-0.08406361
182	0xbd55f83c	-0.052238688
183	0x3e3f167e	0.18660924
184	0xbd8b61d0	-0.06805766
185	0xbdc606a1	-0.09669233
186	0xbd52f45d	-0.051502574
187	0x3d32bdb1	0.043637935
188	0x3ca34ff0	0.019935578
189	0x3e140d1a	0.14458123
190	0xbd3f3b0f	-0.046687182
191	0xbc910ad3	-0.017705357
192	0x390f2e14	0.00013654708
193	0xbdcba54f	-0.099436395
194	0x3e0a38e0	0.13498259
195	0x3d09bb33	0.033625793
196	0xbc427005	-0.011867528
197	0xbd28e087	-0.04122975
198	0xbe219099	-0.15777816
199	0x3dd89266	0.10574798
200	0xbeb7fe76	-0.35936326
201	0x3d92aa45	0.071613826
202	0x3e45740b	0.19282548
203	0xbd8f5576	-0.06998722
204	0xbe16aa79	-0.14713468
205	0x3d9c81be	0.07641934
206	0x3d5f526f	0.054521974
207	0xbd9f3a8b	-0.07774838
208	0xbd2cf10d	-0.04222207
209	0xbdb9a3f8	-0.09064478
210	0x3e1d9149	0.15387453
211	0xbc4ef4dd	-0.012631622
212	0x3e5165db	0.20449011
213	0xbd63f90c	-0.05565743
214	0x3dc874e5	0.09787921
215	0x3e6c5331	0.2307861
216	0x3d85a650	0.06525862
217	0x3b7b705f	0.003836654
218	0x3c9e0c76	0.019293051
219	0xbce7f861	-0.028316678
220	0x3e7a6620	0.2445302
221	0x3e0d5401	0.13801576
222	0x3dc17879	0.094468065
223	0xbd39050d	-0.045170832
224	0x3cf93c62	0.0304243
225	0x3dc146f2	0.0943736
226	0xbe627aaf	-0.22117113
227	0xbd3f08ef	-0.04663938
228	0x3db359aa	0.087573364
229	0xbdf71976	-0.12065403
230	0xbd35c202	-0.044374473
231	0xbda5bf48	-0.08093125
232	0xbcbd8a41	-0.023137214
233	0x3c6c42ca	0.014420221
234	0xbc6c8cfe	-0.014437912
235	0x3cd22af8	0.025655255
236	0xbcc5b274	-0.024132945
237	0x3e1e118c	0.15436381
238	0xbd0bc0c0	-0.034119368
239	0xbd854047	-0.065064006
240	0x3e021860	0.12704611
241	0xbd65cefc	-0.0561056
242	0x3d968061	0.07348705
243	0x3e59d7c4	0.21273714
244	0x3e08ce01	0.13359834
245	0x3e3d4771	0.18484284
246	0x3d3a3a93	0.045466017
247	0x3e1f7998	0.15573728
248	0xbd479b12	-0.04873187
249	0x3dc427ec	0.09577927
250	0x3cd7cd71	0.02634308
251	0x3c9ec4ad	0.019380892
252	0xbc83500c	-0.01602938
253	0x3d8d1c3a	0.068901494
254	0x3d65cb1b	0.0561019
255	0xbcb50dc2	-0.022101287
