test/models/squeezenet1.0_nhwc/weights/fire6_e1x1_kernel.npy (npy, 36944 bytes, 1 tensors)

array f4 [1, 1, 48, 192]
000000 92 7a a6 3b cd 32 83 3c 74 5c 9c 3e 96 4b 82 3d
       0.0050805295 0.016015435 0.30539286 0.06362073
000010 e0 47 8f bd bd 9a dc bd a0 4c 0c be 66 ca 96 bd
       -0.06996131 -0.107717015 -0.13701105 -0.07362823
000020 37 b1 6d 3d 21 5f e9 3b a3 2d 91 bd 64 b6 2c 3d
       0.058030333 0.007121936 -0.07088783 0.04216613
000030 6b 65 8f 3d 6e e5 27 be ce ef 9c bd 61 4c 3f 3e
       0.07001766 -0.16396114 -0.076629266 0.1868148
000040 d4 2d bb 3c 71 90 4d bd 49 9e 85 3d 88 c6 3c be
       0.022849001 -0.05018658 0.06524331 -0.18435109
000050 72 7f 6c be 2a 3e 05 bd 5a f9 36 3e 4b 26 4b be
       -0.23095492 -0.032529987 0.17868558 -0.19838826
000060 07 a1 3a 3e 61 fb 91 3d 20 8e 88 bd a0 61 14 bd
       0.1822549 0.07128025 -0.06667733 -0.036225915
000070 5a 91 c3 bd 9c fc 83 be 1b c1 42 be 9f 8c dc bd
       -0.09549208 -0.25778663 -0.19018976 -0.10769009
000080 bb cd 2e 3d 33 01 f1 bc b9 a4 95 bd 70 96 8f 3d
       0.04267667 -0.029419517 -0.07306809 0.070111156
000090 bb ff 6f 3d a6 e8 0c 3d eb 5f 39 3e f7 0c 06 3e
       0.058593493 0.03440156 0.18102996 0.13090883
0000a0 51 7c 6f be 16 85 9e bd b0 7a 93 bd ae 85 33 3d
       -0.23387267 -0.07740228 -0.07201135 0.04382866
0000b0 43 0d 92 bd b6 10 a3 3d 84 b1 fc 3d 3c 77 96 3b
       -0.07131436 0.07962172 0.12338546 0.0045918506
0000c0 cc c8 9d bd 7e eb a7 bc e6 bf 98 3d d9 5c 08 3e
       -0.077043146 -0.020498034 0.07458477 0.13316669
0000d0 c8 ef 4b 3e b7 ed 2c bd c8 fd 7e bd 2b 66 fc bd
       0.19915688 -0.04221889 -0.062253743 -0.123241745
0000e0 fc b0 16 be 25 4f f0 3d 0a cc 9a 3d 4a d8 54 3b
       -0.14715952 0.117338456 0.075584486 0.003247755
0000f0 f5 ae df 3c 3b b8 1b bd 75 f2 ce 3d 36 4f ad bd
       0.027305106 -0.038017493 0.10104839 -0.08462374
000100 4a 0a 91 be a0 99 a9 3e bb c9 2f 3d 82 2b 87 3d
       -0.28328162 0.3312502 0.042916995 0.06600095
000110 a4 46 19 be 48 78 65 3e 8b 06 ad 3d b0 9c 6a 3d
       -0.14968354 0.22409165 0.084485136 0.057278335
000120 61 e2 0f 3e 51 80 af 3d 37 8c ee 3c c1 df 12 3e
       0.140512 0.08569396 0.029119594 0.14343168
000130 77 ec 69 bd e6 42 c8 bd ae 5a 41 be ef 85 23 bd
       -0.057110276 -0.09778385 -0.18882248 -0.03992265
000140 76 c8 dd bd 72 6f 1d be d8 df 1c be 56 17 d6 bd
       -0.108292505 -0.15374544 -0.15319765 -0.1045367
000150 7a a3 b2 3d d4 06 81 bd ee 85 af bd cc 7e 04 be
       0.08722587 -0.063001305 -0.08570467 -0.12938994
000160 4b 60 51 3d 7f 07 c8 bd d1 5e 9e bc 49 d7 01 bd
       0.051117223 -0.09767055 -0.019332321 -0.031699453
000170 b8 56 47 3e ad 68 03 be d9 e6 2f 3e 0e b5 a9 bb
       0.19466674 -0.128329 0.17177905 -0.005179054
000180 fc 63 a8 3b ab ca 9b 3e 84 4e ea bd 80 09 42 3d
       0.005138872 0.3042806 -0.11440757 0.04737234
000190 ab a0 44 3e 7b f6 35 3e 66 a6 bd 3c 06 09 14 be
       0.19201915 0.17769806 0.023150634 -0.14456567
0001a0 25 26 e9 3d 99 92 3a 3e 19 4b 98 bd 89 4f 66 be
       0.113842286 0.18219985 -0.07436199 -0.22491278
0001b0 18 44 55 3e d4 2b 01 be 7f cc 0e 3d 2f c9 2f bd
       0.20826757 -0.12614375 0.03486299 -0.042916473
0001c0 72 bf ed bd 20 d2 ae 3d ae e7 c1 3c 1b ff 8a 3d
       -0.11608781 0.08536172 0.023670044 0.06786939
0001d0 af 1e 35 3e bf dc 3c be e3 58 16 be 31 c3 17 3e
       0.17687486 -0.18443583 -0.14682345 0.14820553
0001e0 43 b2 7c 3c 78 b9 64 bc e3 7f 5c 3d 06 4e 08 3e
       0.01542336 -0.013960235 0.0538329 0.13311014
0001f0 2e 07 fd 3d cf a4 88 be 6d 92 09 be a2 77 83 3d
       0.12354885 -0.2668824 -0.13434763 0.064193025
000200 bd 58 87 3e 83 e5 6b 3c 37 63 79 bd 1f f0 ee 3d
       0.2643489 0.014397982 -0.060885634 0.11666893
000210 88 30 3e be c5 a0 01 be e6 ca 49 3e 4b 9e 12 3d
       -0.185732 -0.12658985 0.19706306 0.03579549
000220 7d 10 c8 3d 54 4d 90 3d 7f ee 1b 3e 69 0c 27 3e
       0.0976877 0.07045999 0.15227698 0.16313328
000230 7f 0f 9e 3d 02 69 39 be 4f f5 8b 3e 40 77 af bd
       0.077177994 -0.18106464 0.27335593 -0.08567667
000240 d6 2d f1 bd 1d 71 1b 3c 55 73 9a 3c b7 f2 71 bd
       -0.11776321 0.0094874175 0.018853823 -0.05906936
000250 08 f2 12 3d e6 95 b1 be 6f 0a 15 be ff 78 e8 bd
       0.03587535 -0.34684676 -0.14554761 -0.11351203
000260 e8 92 41 3c 58 c9 2e 3e db 25 69 bc 14 6f 21 3d
       0.01181481 0.17068994 -0.014230217 0.039412573
000270 e9 41 0a 3e 4d 2c 89 3e 0d 72 f6 3d 4b 86 98 3d
       0.13501705 0.2679161 0.12033472 0.07447489
000280 26 2e 97 3d 87 68 98 3d c9 76 ab 3c 87 38 9e bc
       0.07381849 0.07441812 0.020930665 -0.019314064
000290 a5 da 47 3d 17 23 29 3e 38 52 f0 3d 53 04 74 bd
       0.0487925 0.16517292 0.11734432 -0.059574436
0002a0 ff 44 50 be e5 c8 66 3e f6 c0 2f be 01 14 33 be
       -0.2033882 0.22537573 -0.17163453 -0.174881
0002b0 80 48 81 3d 5d 2d 91 3c 7f da fd bd 67 a6 1e be
       0.063126564 0.017721826 -0.123951904 -0.15493165
0002c0 8e 51 de 3c f1 75 64 3e 02 90 8c bd 28 d9 c6 3e
       0.027138498 0.22310616 -0.06863405 0.38837552
0002d0 76 aa 08 3d b6 a0 bf 3d bd 5a f1 3d 88 ed 49 3d
       0.03336569 0.09356825 0.11784885 0.049298793
0002e0 92 fb 29 3e db 44 3e 3e ec c3 c6 3c d3 bb d6 bd
       0.16599873 0.18580954 0.024263345 -0.104850434
0002f0 23 25 2c bd 22 ee 6d 3b d8 21 b6 3d be fb da bd
       -0.042027604 0.0036305268 0.08893174 -0.10692547
000300 ef ed f2 bd 2f 7d ab 3c 31 2a b6 bd b5 60 55 3e
       -0.118617885 0.020933716 -0.08894766 0.20837672
000310 a2 f9 3b 3b 72 b5 11 be 5e 03 37 bd 3c 7e 2a 3d
       0.0028682728 -0.14229372 -0.044680946 0.041624293
000320 be 3a f7 bc 4a a6 34 3e 69 51 11 be 56 64 67 bd
       -0.030179378 0.17641559 -0.14191212 -0.056492172
000330 f1 bb 08 be a3 d0 48 be 6d c6 aa bd fc f8 79 3d
       -0.13352944 -0.19610839 -0.08338628 0.061028466
000340 43 88 6c be 94 ab 35 bd 31 5d 5a be 20 f9 16 3a
       -0.23098855 -0.044353083 -0.21324612 0.00057591684
000350 0e 7c 25 bd 8c 6e 8e be b8 4c 50 be 27 8a 36 3e
       -0.04040151 -0.27818716 -0.20341766 0.17826138
000360 70 38 01 3a e2 0b 76 bc 28 6d d5 3d 54 6b 6f bd
       0.00049293693 -0.0150174815 0.104212105 -0.058451965
000370 29 fd 23 bd d0 ce 66 bd 5c 1e 54 3e 95 00 ed 3d
       -0.040036354 -0.056349576 0.20714706 0.11572377
000380 b2 d5 f0 bd 49 ed de bd 6f 59 7c 3d 26 37 48 be
       -0.11759509 -0.10885102 0.061608728 -0.19552287
000390 65 ff b0 3d 84 57 d4 3d 24 56 67 bd 6e 5b 9a be
       0.08642463 0.10368255 -0.056478634 -0.3014788
0003a0 a3 93 aa 3d d9 07 c7 bd 23 2e 4a 3d 42 3c 3c bc
       0.08328941 -0.09718294 0.049360406 -0.011488976
0003b0 9f 07 4e 3e e6 40 14 be f3 a3 c1 3d 45 d1 0d bd
       0.20120095 -0.14477882 0.09455099 -0.034623403
0003c0 55 f6 84 bc a7 b9 7f 3e 3a 4d 1d be 89 3c 84 3d
       -0.016230742 0.24973164 -0.15361491 0.06456859
0003d0 3b a0 d3 bd e6 1b 56 3b 44 a2 1d bd be 46 59 be
       -0.10333296 0.0032670437 -0.038484827 -0.21218392
0003e0 cb 52 d1 bd e8 1c 1c 3d 8d f7 a9 3d 34 ec 90 be
       -0.1022087 0.038113505 0.0829917 -0.2830521
0003f0 1c d0 25 3e 36 3b 4a 3e b3 d0 88 3d 3c 8a e7 bd
       0.16192669 0.1974915 0.06680431 -0.11305663
