test/models/squeezenet1.0_nhwc/weights/fire4_squeeze_kernel.npy (npy, 16464 bytes, 1 tensors)

array f4 [1, 1, 128, 32]
00000000: 247f c9bd f83d 9bbd 5325 1d3d 51d4 03be
00000010: 55ac 253e 56c9 8c3e a9cc 1a3e 6d84 35be
00000020: 66a0 33be b328 57bd 2e7f 84bc 8c77 9b3d
00000030: 8b4c 5dbd f3b5 35bd 3af9 08bd 4f34 1a3e
00000040: 3144 eb3c 3eda 7b3e 5711 49bd 6995 c93d
00000050: b072 a13c 35d7 cbbd 6438 873e f313 293e
00000060: 5011 aa3b 69e0 803c 1177 9f3a c94c 8fbb
00000070: e86d dabc b97f e03c b75e a93c 5c50 ef3d
00000080: 0324 0ebd dc9e 94bd e3f1 87bd e160 fd3c
00000090: 4e7b c83d 48b7 15be dc86 18be 7169 47bb
000000a0: d243 7bbc 6ce9 03bd 3637 343e 62a4 64be
000000b0: 4b72 d93d cd00 89bc 29e5 c3bd 1ee2 71bd
000000c0: 268a 17be 801e 063d f508 c1bd 7421 47bd
000000d0: 0ad9 e3bd d33f 0b3d ba2f 9abe 1412 813d
000000e0: dd1f 193e 4124 153d 965e 503d 3d6c 21bd
000000f0: 689e 1fbd d2ce a7be b100 12be b254 f0bd
00000100: 5438 e63d 015b 6cbe 5c5b 55bd acd8 463d
00000110: f8d5 7abe eac3 12be 9935 4bbe f1cf 3bbe
00000120: 7780 ec3d 7034 663e f761 b6bd b8a5 b9bd
00000130: 0493 133e 10a9 823d 2d93 7abd 34b4 8e3d
00000140: d60b 983d 3a82 12be 466b 1b3e e747 fb3d
00000150: 84f9 84bd e21a 7cbd 8ba0 403e 3b9a d63d
00000160: 681e 7c3b c0bc 02bd bca0 17bd a0a3 2e3c
00000170: 691d 173e 95b1 45be 8366 6dbe e550 ca3d
00000180: 397c 7e3d 9bc3 3b3e 52db 1ebe 174e cf3d
00000190: 3bcc 1ebe 4fc9 cebd 450c c5bd 0022 493e
000001a0: aab5 bbbd 01a7 e83d b3fe 2d3e 981f 8cbd
000001b0: ed29 00be 9efc 1dbd 8c7b ab3d a651 423c
000001c0: 71b5 04be 2dfc 083e 5e1b 2f3e 3192 8f3d
000001d0: aa3f 99bd b64a 56be df0f 70be 160e 2ebd
000001e0: 5a13 09be 3811 c3bc 80ca b33d 6633 b3bd
000001f0: ade6 b8bd 5b1d 893d 9f5f 90bd 7b7b fb3d
00000200: 89a8 a3bd 4c62 993c b310 8dbb a453 b33c
00000210: 5c32 bcbc 160a 91be abca d93d 50d4 2ebd
00000220: 2e3e 3abd 4223 2cbd 8cf3 47bc 98f0 a63d
00000230: 4f72 00be 4c8a 903d 0002 8a3d 07b7 1dbd
00000240: 1e9c 0c3e 2a41 be3d 892b 8bbd 33b4 f6bd
00000250: 9f8c a1bc 761a 7abd 719c 73bd 76d8 f0bd
00000260: e5ee bcbd 135a 45bc 1b5d eabd 9f08 a63d
00000270: fc5d 03bd 38fc 2bbd e7bc 83bd 4102 833e
00000280: 4917 4ebe 843d 1d3e e1b9 713e 5ef5 1ebe
00000290: 485c 6f3d d3db efbd a953 f13d 99ce a6bd
000002a0: 14ae a3be e008 5a3c e7b8 17bc 93f1 d2bd
000002b0: 2dba de3a 2171 06be 5047 c43d 88ef 4bbd
000002c0: a7ee 8cbc 7065 84bd 5637 fb3d 17d4 b4bd
000002d0: bd10 9bbe 3123 b2bd 9ea7 163d afdc 77bd
000002e0: 8a7d 0f3e 6a07 a3bd 1b28 253d 48d8 833c
000002f0: 1e42 433d 89d6 863b 3cc1 a2bd bb44 f8bd
00000300: 6d0e 053e a282 c4bd 3150 debd c45d 5cbd
00000310: e8f6 1a3e a291 c4bd 3dd2 b4bd 110e c3bd
00000320: 73a0 393d c4b3 643d 7c44 cfbd e568 c53b
00000330: 8880 1abe 0599 02bd c030 b43d 04e4 9bbb
00000340: b662 53bc adb4 32be e7b0 58bd bc35 033c
00000350: f723 cdbd 6194 313e 1a07 b73d 12ea 813d
00000360: 27aa d6bc cad7 833c e393 2e3e 45c7 713e
00000370: ca13 db3c d82e 013e ef93 46bd f045 3dbe
00000380: 97bf 0fbc f1d4 18bd 34c7 dabd 6bae 86bc
00000390: 6f5a 33bd fce1 e33d ae8d 7dbd bc78 00bc
000003a0: 7726 c5bd 297c c8bd b9d7 87bc c622 333e
000003b0: 7a87 96be 7d65 0abd 7d4f 263e 98d5 c8ba
000003c0: f80d 183d 3ebd b9bd dfe2 57bd dd4c c3bd
000003d0: 5102 c4bc 539f 35bd c6d1 d8bd 83e3 7c3d
000003e0: 8a54 62bd 729b b6bd de67 1d3b ef7b 2e3e
000003f0: 563f 1d3e 1e66 1e3e f9d9 9c3d 1665 0dbb
-0.09838703 -0.07580179 0.038365673 -0.12873961 0.1617902 0.27497357 0.15117134 -0.17726298
-0.17541656 -0.05252905 -0.016173925 0.07591161 -0.054028075 -0.044362973 -0.033440806 0.15059017
0.02871904 0.24594972 -0.049088802 0.09842951 0.019708008 -0.09953157 0.2641021 0.16511516
0.005190052 0.015732007 0.0012166222 -0.004373167 -0.026663736 0.027404653 0.020675046 0.11685249
-0.034702312 -0.072568625 -0.06637933 0.030929985 0.097891435 -0.14620697 -0.14895195 -0.0030427838
-0.015335994 -0.03220503 0.17599186 -0.22328332 0.10617503 -0.016724015 -0.09565193 -0.059053533
-0.14798793 0.03274393 -0.094255365 -0.048615888 -0.11125381 0.033996414 -0.30114537 0.06302276
0.14953561 0.036411528 0.050871454 -0.039409865 -0.038969427 -0.3277498 -0.14258076 -0.11734904
0.112412125 -0.2308159 -0.05208908 0.04854648 -0.24495685 -0.14332548 -0.19844665 -0.18341042
0.1154794 0.22480941 -0.08905404 -0.090648115 0.14411551 0.06379902 -0.061175514 0.06967965
0.074241325 -0.1430749 0.1517764 0.12269574 -0.06492904 -0.061549075 0.18811242 0.10478636
0.0038470272 -0.031918287 -0.037018523 0.010659128 0.14757313 -0.19306023 -0.23183636 0.09878711
0.062130187 0.18336336 -0.15513352 0.10122316 -0.15507595 -0.1009699 -0.09621481 0.19641876
-0.09165509 0.113599785 0.16991691 -0.068419635 -0.12515993 -0.038570993 0.08373174 0.011860287
-0.1295984 0.13377447 0.17100284 0.07010306 -0.07482846 -0.20926937 -0.23443554 -0.042493902
-0.13386288 -0.023811921 0.08778858 -0.08750038 -0.09028373 0.06695052 -0.07049488 0.122794114
-0.0799113 0.01872363 -0.004304969 0.021890469 -0.022973232 -0.28328007 0.10634359 -0.042682946
-0.045469455 -0.042025812 -0.012204062 0.08151358 -0.12543605 0.07057628 0.06738663 -0.038504627
0.13731429 0.09289773 -0.06795413 -0.12046089 -0.019720374 -0.06106039 -0.059475366 -0.11760037
-0.09225253 -0.012045401 -0.1144354 0.08107113 -0.032072052 -0.04198858 -0.06432515 0.25587657
-0.2012607 0.15355498 0.23606063 -0.15523288 0.058437616 -0.1171185 0.11783535 -0.08144874
-0.3196875 0.01330778 -0.009260393 -0.10299983 0.001699274 -0.13129093 0.09583914 -0.04978898
-0.017203642 -0.0646466 0.12266414 -0.088295154 -0.30286208 -0.086981185 0.036780946 -0.060513195
0.14012733 -0.079603985 0.04032145 0.016094342 0.047670476 0.00411493 -0.07947013 -0.12122484
0.12993784 -0.09595229 -0.10855139 -0.05380036 0.1513325 -0.0959809 -0.08829162 -0.09524167
0.045319032 0.0558355 -0.10120484 0.0060244673 -0.15088093 -0.031884212 0.08798361 -0.004757406
-0.0129019525 -0.17451735 -0.052903082 0.008008417 -0.100166254 0.17341758 0.089369014 0.063434735
-0.026204182 0.016094107 0.17048602 0.23611172 0.026742835 0.12615526 -0.048480924 -0.1848371
-0.008773706 -0.03731245 -0.10682526 -0.01644059 -0.043787416 0.111270875 -0.061902694 -0.007841285
-0.09626477 -0.09789307 -0.016582357 0.17493734 -0.29400235 -0.033788193 0.1624126 -0.0015322445
0.037122697 -0.09069298 -0.052706596 -0.09536145 -0.023926886 -0.044341397 -0.10586886 0.06174041
-0.055256404 -0.089163676 0.0024018208 0.17039464 0.15356192 0.15468642 0.076587625 -0.0021575144
