test/models/squeezenet1.0_nhwc/weights/fire5_e3x3_kernel.npy (npy, 147536 bytes, 1 tensors)

array f4 [3, 3, 32, 128]
000000 b1 db 43 3d 00 8e 81 bd 2e 7f a6 be 8f 1b ff 3d
       0.047816936 -0.063259125 -0.32518905 0.12456428
000010 d0 a7 e9 3d 3d 00 19 3e 5f 10 d0 3d f6 3d f1 bd
       0.11408961 0.14941497 0.101593725 -0.11779396
000020 03 12 c4 3c 8b 20 fb 3d 1e 85 36 3d 0c dd 89 bd
       0.02393437 0.122620665 0.044560544 -0.067316145
000030 84 d5 d0 bd 6c 7e 2f 3e 66 da 13 3c 86 33 31 ba
       -0.10196975 0.1713807 0.009024238 -0.0006759692
000040 b3 66 29 3d 03 82 c3 3d dd 9c e3 3c f0 87 2a bc
       0.041357707 0.09546282 0.02778476 -0.010408387
000050 f8 ac ef 3c 52 7c 43 3d 29 a6 4b bd 5d 61 bb bd
       0.029257283 0.047725983 -0.04971901 -0.0914943
000060 90 4d fe 3d 05 8f 0d 3d 13 76 1a bd 44 b4 06 3e
       0.124171376 0.034560222 -0.03771026 0.13154703
000070 ab a7 fc bd f8 6a 1e 3d 19 bc 06 bd 92 80 07 be
       -0.123366676 0.038676232 -0.032894228 -0.1323264
000080 1b 14 33 3e 27 cd 96 be 97 0e 15 bd 28 9d f3 bd
       0.17488138 -0.29453394 -0.036390867 -0.118952096
000090 f4 69 0d be 41 6f 86 3d c1 4d a0 3c c3 bb c0 3d
       -0.13809949 0.06564189 0.019568326 0.09410813
0000a0 56 b5 9e 3d 48 9f 82 3c e9 71 07 3c 31 b9 dd 3c
       0.07749431 0.015945092 0.008266904 0.027065845
0000b0 94 6d 5f 3d a6 82 f4 bd 95 c6 06 3e a3 b0 65 3e
       0.05454786 -0.11938982 0.1316169 0.22430663
0000c0 40 32 a2 3d e5 81 38 be 52 53 96 bd 1b 37 5a be
       0.07919741 -0.18018301 -0.07340111 -0.21310084
0000d0 18 db 2f 3e 79 56 88 3e 58 b3 e8 3b 41 d2 8f 3e
       0.17173421 0.26628473 0.0071014576 0.28090099
0000e0 14 50 35 3d e8 c9 93 bd 4c 8c 51 3e 4d e3 19 3e
       0.04426582 -0.07216245 0.20463675 0.15028115
0000f0 8b 62 2a 3d e3 de c8 3d 12 dd 96 3d 8b 99 1b bc
       0.041597884 0.09808137 0.073663846 -0.009497057
000100 ae d6 47 3d 17 b5 f6 3c 53 66 9d bd 74 a7 20 bd
       0.04878872 0.030115647 -0.076855324 -0.039222196
000110 7a b2 de 3d ad 02 3e 3d 03 2c 70 3d 96 47 a2 bc
       0.108738855 0.04638927 0.058635723 -0.019809525
000120 47 5a 53 3c b2 f3 d4 3c f6 4a 3b bd d1 de c9 3c
       0.012899942 0.02599511 -0.045725785 0.02464238
000130 a7 41 5b 3e 5a c7 65 3e 53 26 95 3e 39 75 90 bc
       0.21411763 0.22439328 0.29130802 -0.017634021
000140 e3 c9 87 bc 5b 35 37 be 40 45 85 3d 1d b8 37 3c
       -0.01657576 -0.17891447 0.06507349 0.01121333
000150 19 2e bc 3c 8a fb 88 3e 92 60 ae bd 2e ba 9f bd
       0.0229712 0.2675441 -0.08514513 -0.07799183
000160 d8 ab 10 bc 47 7b 94 bd c4 37 63 3d 81 4a 2d 3d
       -0.008830033 -0.07250076 0.055473104 0.04230738
000170 66 af bb 3a 7f 0e 26 bd 71 96 9f bd da 14 10 3e
       0.001431924 -0.04054117 -0.07792366 0.14070454
000180 8e 12 02 be f0 7c 8d 3d 4c 2a a3 3d 03 d1 71 bd
       -0.1270239 0.069085956 0.07967052 -0.05903722
000190 62 fa 5e 3e f8 61 68 bd b8 b5 ad bd 12 d1 f7 3d
       0.21775201 -0.056734055 -0.08481926 0.12100424
0001a0 29 6f fa bc 06 35 b1 3d 85 75 ea bc 92 a8 02 bc
       -0.030570583 0.086526915 -0.02862049 -0.007974761
0001b0 ad 12 63 bd d9 2d c8 be 86 22 aa 3d 3d 95 65 3d
       -0.055437732 -0.3909748 0.08307366 0.056050528
0001c0 28 31 95 3d a2 22 79 bd 76 cc 3d bd 83 82 dd 3d
       0.072847664 -0.060824044 -0.046337567 0.10815909
0001d0 df a1 dc bc ff e9 54 bc c0 28 9e bd 7e 61 5f 3d
       -0.026932655 -0.012995242 -0.07722616 0.054536335
0001e0 3e cb d2 bd 1a ef b8 bd a6 ef e9 bd 6d 48 f7 3c
       -0.102926716 -0.0902998 -0.114226624 0.030185902
0001f0 e7 e3 58 bd 31 38 5e 3b b6 cc 29 be fc 08 ac 3d
       -0.05295172 0.0033908004 -0.16581997 0.08400151
000200 a6 7b ce 3d 03 aa 00 bd 75 80 a5 3d a2 9a 4b 3e
       0.10082178 -0.031412136 0.08081142 0.19883206
000210 21 0d 46 3e 76 ab 9c be 83 f1 4f 3d da a6 f6 bc
       0.19340946 -0.30599564 0.050767433 -0.030108858
000220 21 14 33 bd ba b8 00 3c df 2d 56 3e f6 9e e8 3d
       -0.04372037 0.007856542 0.20915936 0.113584444
000230 92 40 d9 bd e7 53 1e be 90 60 a5 bd f2 ed 8b bd
       -0.10608019 -0.15461694 -0.080750585 -0.06832494
000240 c8 c6 67 bd 2c 28 ea 3d 74 1e 0b bd e0 3e 2a bd
       -0.056586057 0.114334434 -0.03396459 -0.04156387
000250 d4 b6 10 3e c9 85 83 be 52 9b 65 3d 38 cb 70 3b
       0.14132243 -0.25688007 0.056056328 0.0036742222
000260 88 1e 94 3d c5 0a 03 3e 08 8a a6 bd 4b f5 24 bd
       0.07232386 0.12797077 -0.08131796 -0.040272992
000270 80 2d 5e bd d0 01 1f bc b7 18 a2 3d a8 a9 49 be
       -0.05424261 -0.009705022 0.0791487 -0.19693625
000280 6d 41 94 bd 28 00 53 bc c4 a6 38 3d 58 3f f1 bc
       -0.072390415 -0.012878455 0.045080915 -0.02944915
000290 c9 d6 b3 bd 68 76 6c be 2c 25 93 3c 31 7f 22 be
       -0.087812014 -0.23092043 0.01796206 -0.15868832
0002a0 b9 04 86 3d 83 09 4f be 1b 07 bb 3a 53 fd 1f 3d
       0.065438695 -0.20218472 0.0014269085 0.03905995
0002b0 a8 7b 26 3e a1 e2 e3 3c 7a b0 b3 3d 07 30 89 bd
       0.16258109 0.027818026 0.087738946 -0.066986136
0002c0 96 2a 72 be 30 f1 9e bd 67 8b 0a 3c 97 84 33 3d
       -0.23649058 -0.077608466 0.008456088 0.04382762
0002d0 b4 70 b0 bd 4f ef 38 be f7 15 c9 3c 0a 97 20 bd
       -0.086152464 -0.18060039 0.024546606 -0.039206542
0002e0 12 95 46 be bc cb 03 3e 8d f6 8d 3e e8 24 cc 3c
       -0.19392803 0.12870687 0.27727166 0.024919942
0002f0 22 8f 82 3d eb be fc bd a0 f5 33 3e cc 6b 3e 3b
       0.06374957 -0.12341102 0.17574167 0.002905595
000300 af a1 ea bc fb 4e a7 bc e2 ce 33 3d 3b d2 f2 3c
       -0.02864155 -0.020423403 0.04389847 0.029641261
000310 c4 20 bb bd a6 a2 14 3e 6e 78 ca bd 16 c2 c9 bd
       -0.09137109 0.1451517 -0.098862514 -0.09851472
000320 9b c6 b8 3c 2f 26 dc bc 9c 87 8e 3d f6 fa 02 bd
       0.02255564 -0.026873676 0.06959459 -0.031977616
000330 36 82 08 be f4 4e 5a bd df 1f 75 3d 3e 50 67 3b
       -0.13330922 -0.05329795 0.059844848 0.003529563
000340 f2 76 b2 3d 42 ee 8e 39 8f 32 8d 3d a4 14 17 bd
       0.08714093 0.00027261866 0.06894409 -0.03688492
000350 66 60 01 3d fb 34 c0 3d 78 a1 11 bd 65 54 9a bd
       0.031586073 0.09385105 -0.03555438 -0.07535628
000360 5e aa 95 3c 83 bb a6 bd e5 b3 ac 3c b7 86 a2 bc
       0.018269714 -0.08141234 0.021081874 -0.019839628
000370 1f a4 00 3b b5 02 5e bc 5c f6 f5 bd ff 7a ce 3d
       0.0019629074 -0.01355045 -0.1200988 0.100820534
000380 e8 d2 27 3e fb ac f7 bc 2d a3 9b bd bf eb 82 3c
       0.16389048 -0.03023385 -0.07599483 0.015981553
000390 44 21 3b 3d 26 8f 1d bd 2a 01 35 3e 07 ea 81 3d
       0.04568602 -0.038466595 0.17676225 0.06343465
0003a0 57 42 9e 3c 05 10 3f 3d b2 db f1 3d 1c 37 fd 3a
       0.019318743 0.046646137 0.11809482 0.0019318792
0003b0 eb fb 5d be 61 59 43 be a9 f7 df 3d 08 60 4f 3e
       -0.2167813 -0.19077064 0.10935909 0.20251477
0003c0 ea 7d 89 3d 9a 21 07 3d a3 fc 60 3c 2c 47 bb 3d
       0.06713469 0.03299103 0.013732108 0.09144434
0003d0 81 0e 18 bd 2b 15 13 bc ee 62 99 bd 0e 66 e0 bd
       -0.037123207 -0.008977215 -0.074895725 -0.109569654
0003e0 4c d7 22 3e 5e 03 bb bc 50 d6 54 be 21 60 9b 3d
       0.15902442 -0.022828754 -0.20784879 0.075866945
0003f0 aa fd 25 3b 2c b5 6c bd 9a 3d fe bd 4d 4a b0 3d
       0.0025328198 -0.057789966 -0.12414093 0.08607922
