test/models/squeezenet1.0_nhwc/weights/fire3_e1x1_kernel.npy (npy, 4176 bytes, 1 tensors)

array f4 [1, 1, 16, 64]
0.014888867 0.0047311042 0.471495 -0.08676083 -0.12383062 -0.21666262 0.01439818 -0.1785628
-0.2666235 0.113734834 -0.11290456 -0.34856758 -0.19720574 0.18827848 0.08223489 0.17026532
0.0017337414 -0.15122972 0.035198223 -0.046060406 0.19710538 0.18215138 0.00049452746 0.03834792
-0.10745552 -0.12323146 -0.1978554 0.2853527 -0.20451717 0.1401663 -0.14245789 -0.44716883
-0.105382316 -0.04996765 0.02144354 -0.20997453 -0.15754746 0.1740951 -0.37875086 0.15373957
-0.104118645 -0.016716551 -0.082561575 0.004798677 0.18702239 0.005329845 -0.11088677 0.17506292
-0.046821166 0.49563938 0.09587593 -0.015457745 -0.14107174 0.15670814 -0.2560513 -0.08398813
0.03172479 0.047581676 -0.15803744 -0.14543018 -0.11146281 0.14828347 -0.15654922 -0.09391884
-0.10098455 0.15060358 -0.171979 -0.27125123 -0.10305766 -0.21074131 0.02310795 0.10679267
-0.26048413 0.09594361 -0.11560307 0.02403982 -0.14937277 -0.03147919 -0.02923536 0.05505134
-0.555753 -0.056198955 -0.016216096 -0.8315672 -0.26122084 0.044636928 0.039013032 0.4325633
0.03541248 -0.20361912 0.07728414 -0.22809656 0.2097306 0.46586022 0.1429152 0.14192
-0.09876531 -0.8531168 -0.2883793 0.03739939 -0.035855353 0.07744758 -0.0006386842 0.0005345199
0.080205046 0.14212413 -0.40424302 0.24955648 0.46481654 0.034081 -0.095477246 -0.0026533876
0.5227672 -0.024015535 -0.002706448 -0.2597124 -0.030202376 0.020392764 0.28950346 -0.034872837
0.1046634 -0.029506855 0.09267156 -0.08881681 -0.2253041 -0.43262932 0.08404031 0.023928225
0.3456327 -0.29759625 -0.18911527 0.06617474 0.19215451 -0.4004462 -0.4142584 -0.099490024
-0.07647308 -0.18999186 0.13468316 -0.18191731 -0.1239679 0.1536647 -0.45780972 -0.3299239
-0.20212948 0.029903037 -0.070082 -0.057773944 0.3397313 0.13704637 0.09615205 0.10771961
-0.15625769 0.07822655 0.12476701 -0.29505664 0.31015083 -0.18031229 -0.228244 0.092545316
0.018879902 0.0016212098 -0.026929189 -0.090004764 0.30575025 -0.08900586 0.20532644 -0.3651257
-0.027338518 -0.2249692 0.16131862 -0.07501229 -0.36648098 -0.17145675 -0.08860457 -0.13581239
0.22801343 -0.3008363 0.05099467 0.18029594 0.19347455 -0.1333158 -0.3933247 0.0520229
-0.37811506 -0.2871019 0.18688898 0.31465915 0.17182273 -0.06406884 0.1815458 -0.14648095
0.42688158 -0.28095242 0.20161127 0.26976934 0.06122131 0.2523477 -0.040078197 0.29542485
0.055391036 0.082812525 -0.06131222 0.30004972 -0.107682616 0.19872297 -0.14150034 0.22341166
-0.31555966 -0.0017034336 0.054647848 -0.09281599 -0.050633576 -0.13617715 -0.21408081 0.13467793
-0.13040005 0.019913357 0.020125397 0.22030202 -0.14021803 -0.22625533 -0.17532514 -0.056162767
0.13160495 0.037638362 0.19318558 -0.0042919195 -0.10356391 -0.042732377 -0.10111904 0.13324988
0.23115858 -0.06269208 0.16650873 -0.08252106 -0.18668872 0.033766072 0.076865576 -0.3251562
0.32187432 0.11670841 0.17218292 0.41833755 0.05591414 -0.03534979 0.0048609497 0.02171746
-0.4941291 0.1983484 -0.29043362 -0.22686307 0.093342885 -0.25757176 0.043369338 0.001956777
00000000: 6ff0 733c 6107 9b3b cb67 f13e a9af b1bd
00000010: e89a fdbd cedc 5dbe 58e6 6b3c 2bd9 36be
00000020: e082 88be cfed e83d 823a e7bd 7377 b2be
00000030: 4df0 49be 13cc 403e c46a a83d 085a 2e3e
00000040: b53e e33a f7db 1abe 032c 103d d6a9 3cbd
00000050: fed5 493e e485 3a3e 2da3 013a b512 1d3d
00000060: a411 dcbd c760 fcbd 9b9a 4abe c019 923e
00000070: f36c 51be c187 0f3e 7be0 11be 50f3 e4be
00000080: afd2 d7bd e1aa 4cbd 5daa af3c 9003 57be
00000090: 1f54 21be fc45 323e a2eb c1be e86d 1d3e
000000a0: 283c d5bd 26f1 88bc 0b16 a9bd 383e 9d3b
000000b0: cc82 3f3e fba5 ae3b 9a18 e3bd b243 333e
000000c0: 8dc7 3fbd 72c4 fd3e 995a c43d 7b42 7dbc
000000d0: 1c75 10be 1978 203e 2819 83be f801 acbd
000000e0: daf1 013d 01e5 423d 91d4 21be a6eb 14be
000000f0: 9d46 e4bd 9fd7 173e 704e 20be 8558 c0bd
00000100: fdd0 cebd d337 1a3e 431b 30be 71e1 8abe
00000110: e50f d3bd 92cc 57be e24c bd3c 1eb6 da3d
00000120: 2d5e 85be 157e c43d 4dc1 ecbd 28ef c43c
00000130: 2df5 18be 53f0 00bd fe7e efbc 847d 613d
00000140: d445 0ebf e030 66bd 9ed7 84bc 97e1 54bf
00000150: bdbe 85be 36d5 363d 21cc 1f3d f078 dd3e
00000160: ad0c 113d 8881 50be 2647 9e3d 2592 69be
00000170: 9ec3 563e 3b85 ee3e 5d58 123e 7a53 113e
00000180: 7845 cabd dd65 5abf 74a6 93be 1a30 193d
00000190: 10dd 12bd d69c 9e3d 5f6d 27ba 061f 0c3a
000001a0: 8b42 a43d fd88 113e f1f8 cebe bc8b 7f3e
000001b0: 6ffc ed3e 8598 0b3d 9389 c3bd 75e4 2dbb
000001c0: 12d4 053f 3abc c4bc aa5e 31bb 06f9 84be
000001d0: f96a f7bc ba0e a73c cc39 943e d2d6 0ebd
000001e0: c459 d63d 5cb8 f1bc 96ca bd3d 96e5 b5bd
000001f0: 1eb6 66be 9781 ddbe 531d ac3d 2005 c43c
00000200: c5f6 b03e 895e 98be 6fa7 41be 9f86 873d
00000210: 27c4 443e 4907 cdbe ad19 d4be 6dc1 cbbd
00000220: eb9d 9cbd 3a8d 42be 62ea 093e 8848 3abe
00000230: e2e2 fdbd 475a 1d3e 0966 eabe c9eb a8be
00000240: 08fb 4ebe 37f7 f43c 2787 8fbd 5fa4 6cbd
00000250: 43f1 ad3e e255 0c3e 5eeb c43d 199c dc3d
00000260: 0402 20be 3e35 a03d d985 ff3d aa11 97be
00000270: 17cc 9e3e c9a3 38be ccb8 69be 6688 bd3d
00000280: 06aa 9a3c c67e d43a 9a9a dcbc 6b54 b8bd
00000290: 4c8b 9c3e b448 b6bd 1841 523e c1f1 babe
000002a0: 07f5 dfbc 535e 66be b530 253e 0ba0 99bd
000002b0: 65a3 bbbe 5c92 2fbe 5076 b5bd 6712 0bbe
000002c0: 5a7c 693e 3707 9abe c9df 503d 809f 383e
000002d0: 311e 463e f083 08be db61 c9be f715 553d
000002e0: 4c98 c1be 05ff 92be d35f 3f3e 011b a13e
000002f0: 4cf2 2f3e 8636 83bd 24e7 393e 1aff 15be
00000300: 3990 da3e ffd8 8fbe 2f73 4e3e 351f 8a3e
00000310: 32c3 7a3d b833 813e 0929 24bd ed41 973e
00000320: b6e1 623d 9d99 a93d 8622 7bbd 1ea0 993e
00000330: b488 dcbd 097e 4b3e 77e5 10be 07c6 643e
00000340: 0991 a1be bf45 dfba 6cd6 5f3d 4f16 bebd
00000350: 2765 4fbd 0672 0bbe 0038 5bbe 03e9 093e
00000360: 9787 05be 5621 a33c 04de a43c da96 613e
00000370: 5195 0fbe 7aaf 67be 6f88 33be ee0a 66bd
00000380: 73c3 063e af2a 1a3d 71d2 453e 3ba3 8cbb
00000390: 5119 d4bd 2508 2fbd 8017 cfbd a872 083e
000003a0: d6b4 6c3e b564 80bd 4481 2a3e cd00 a9bd
000003b0: 542b 3fbe 4b4e 0a3d b36b 9d3d e07a a6be
000003c0: b6cc a43e d204 ef3d b850 303e 5730 d63e
000003d0: 3a06 653d f1ca 10bd 9a48 9f3b d1e8 b13c
000003e0: 7dfe fcbe d81b 4b3e b7b3 94be cb4e 68be
000003f0: 8e2a bf3d 72e0 83be 0ca4 313d 453d 003b
