test/models/squeezenet1.0_nhwc/weights/fire3_e3x3_kernel.npy (npy, 36944 bytes, 1 tensors)

array f4 [3, 3, 16, 64]
0	0x3e63e562	0.22255471
1	0xbcbe71c0	-0.0232476
2	0xbd00757b	-0.031362038
3	0xbca954c2	-0.020670298
4	0xbe74f411	-0.23921229
5	0xbe1b8624	-0.1518789
6	0xbe34cc01	-0.17655946
7	0xbe3bbc4d	-0.1833355
8	0xbe183dc0	-0.14867306
9	0x3ceff8ec	0.0292935
10	0xbda6fe11	-0.08153928
11	0x3d187a70	0.03722614
12	0x3de64dfd	0.11245344
13	0x3d91d6a9	0.07121021
14	0xbdda4475	-0.106575884
15	0x3c6cb5e9	0.014447668
16	0x3cfed165	0.031105706
17	0x3d408912	0.04700572
18	0x3d6b6fa4	0.057479516
19	0xbd079555	-0.0331014
20	0x3d39018d	0.045167495
21	0x3bd3ab95	0.006459663
22	0x3e348cfb	0.17631905
23	0x3cfa27f7	0.030536635
24	0xbdb3dc8e	-0.08782302
25	0x3d406543	0.04697157
26	0xbc30e0a8	-0.01079575
27	0x3dde8eed	0.10867105
28	0x3d88703a	0.066620305
29	0x3e17061b	0.14748423
30	0xbcf551ea	-0.029946286
31	0x3dd8032a	0.105474785
32	0x3d9f39f0	0.077747226
33	0x3cc58f30	0.024116129
34	0x3d914d50	0.07094824
35	0xbdcd4b6e	-0.10024153
36	0xbdbfb9d0	-0.09361613
37	0x3d4c058d	0.04980998
38	0xbe09e02d	-0.13464423
39	0xbd8f091c	-0.06984159
40	0xbda4214d	-0.08014164
41	0x3d88e317	0.06683939
42	0x3c02b2ec	0.007977229
43	0x3d39142a	0.045185246
44	0x3e839a15	0.25703493
45	0xba3c80f1	-0.00071908446
46	0xbe9bb247	-0.30409452
47	0xbca55967	-0.020184232
48	0x3ddd27ee	0.107986316
49	0xbd005d8a	-0.031339206
50	0xbdd2e0d9	-0.102967925
51	0xbe750d01	-0.23930742
52	0xbe0924a2	-0.1339288
53	0xbe2304ce	-0.15919802
54	0x3b41caf1	0.0029570425
55	0xbda8fe54	-0.08251634
56	0x3dc7286f	0.09724509
57	0xbd66810a	-0.056275405
58	0xbe1e2646	-0.15444288
59	0xbdad5565	-0.08463553
60	0xbc58677a	-0.0132082645
61	0x3c22f99e	0.009947209
62	0xbdbac646	-0.09119849
63	0x3cb929b0	0.022602886
64	0x3dcb5417	0.09928148
65	0xbd20116f	-0.039079126
66	0x3eb15da7	0.34641764
67	0xbdd6787e	-0.10472201
68	0xbdd90959	-0.10597486
69	0xbdc3a543	-0.095530055
70	0xbcc5141f	-0.024057446
71	0x3bc35c5f	0.005961939
72	0xbef9b256	-0.48768872
73	0x3da3dc78	0.080010355
74	0xbe41cdd7	-0.18926178
75	0x3ca18ad8	0.019719526
76	0x3dc74f6e	0.09731947
77	0xbe031842	-0.12802222
78	0xbde97db4	-0.11400929
79	0xbe923963	-0.28559408
80	0xbe3248d2	-0.17410591
81	0xbcc11f64	-0.023574539
82	0x3e829016	0.25500554
83	0xbdd755b6	-0.10514395
84	0x3d2e5d7a	0.042569615
85	0x3d45e5b3	0.04831476
86	0xba8632d0	-0.0010238532
87	0xbd518d18	-0.051159948
88	0x3d6fa8d1	0.058510605
89	0xbd42e558	-0.047582
90	0xbd03f5c2	-0.032216795
91	0xbd754f72	-0.059890218
92	0xbd073406	-0.033008598
93	0x3cf70cbb	0.030157438
94	0x3d473284	0.04863216
95	0x3ca195dc	0.019724779
96	0x3d4c7d46	0.049924158
97	0xbd6ab8de	-0.05730521
98	0x3db614ec	0.08890709
99	0x3d25c929	0.040475044
100	0x3d8a1239	0.06741757
101	0x3c916ba3	0.01775152
102	0x3d54a35d	0.051913608
103	0x3d789cc6	0.060696386
104	0xbda43014	-0.08016983
105	0x3d991dd2	0.07476391
106	0xbd31ae3d	-0.043379057
107	0xbdd93665	-0.10606078
108	0x3d322f76	0.043502294
109	0x3de197f1	0.11015309
110	0xbd7c33ee	-0.06157296
111	0xbcc06e28	-0.023490027
112	0x3c4672f0	0.012112364
113	0x3e10e41f	0.14149521
114	0xbde1206c	-0.10992512
115	0x3da0e5b8	0.078563154
116	0xbe36e361	-0.17860176
117	0x3cd7aa1a	0.026326228
118	0x3cec19a7	0.028820826
119	0xbd2c8a04	-0.04212381
120	0x3d4a2b90	0.04935795
121	0x3dac3547	0.08408599
122	0x3e4253f8	0.18977344
123	0xbd911973	-0.07084932
124	0xbdc4a666	-0.096020505
125	0xbdc6ed54	-0.097132355
126	0x3be4d564	0.006983446
127	0x3d531243	0.051531088
128	0x3de71146	0.112825915
129	0x3d5c05df	0.053716537
130	0x3dde8deb	0.108669125
131	0xbc8b1471	-0.01697752
132	0x3dda5bc8	0.10662037
133	0x3e4710ec	0.19440049
134	0x3d67ef62	0.056624778
135	0xbe18af3b	-0.14910595
136	0x3b6e65ae	0.0036376524
137	0x3d542c36	0.051799975
138	0x3c914343	0.017732268
139	0xbd9596e1	-0.073041685
140	0xbd6d751d	-0.057973016
141	0xbbbf38aa	-0.0058356123
142	0xbe920887	-0.2852213
143	0xbdf005f7	-0.11719888
144	0xbe87423a	-0.26417714
145	0xbc268cb8	-0.010165386
146	0x3e2b17d4	0.16708308
147	0xbbd6e650	-0.006558217
148	0x3c33e173	0.010979044
149	0xbdb580aa	-0.08862431
150	0xbbcc9b05	-0.0062440657
151	0xbe2c3d3d	-0.16820236
152	0xbe1556b5	-0.14583857
153	0xbcc90ea8	-0.024543121
154	0x3d8db098	0.06918448
155	0x3ccb7e63	0.02484054
156	0xbd9e29c6	-0.077228114
157	0xbd15de66	-0.03658905
158	0x3dd42123	0.10357883
159	0xbe06b89b	-0.13156359
160	0x3d8b8b81	0.06813718
161	0x3d9f83f3	0.07788839
162	0x3e920c88	0.28525186
163	0xbd9aa8e1	-0.07551742
164	0xbd0390bc	-0.03212045
165	0x3c476100	0.012169123
166	0xbcb3cc6d	-0.021948064
167	0xbda6607e	-0.08123873
168	0x3cbfd3cb	0.02341642
169	0xbc381800	-0.011236191
170	0xbd0fb752	-0.035086937
171	0xbd422700	-0.047400475
172	0x3e7b39b9	0.24533738
173	0xbdb0dcb8	-0.08635849
174	0xbe33a83c	-0.17544645
175	0xbc4b443d	-0.012406406
176	0x3c15f2b3	0.009152102
177	0xbd1205da	-0.03565011
178	0xbd875534	-0.06608048
179	0x3d9c74cc	0.07639465
180	0xbe8ca8b4	-0.2747246
181	0xbcca42a0	-0.024689972
182	0xbbed0090	-0.007232733
183	0x3d697b2d	0.057002235
184	0xbdab80a6	-0.08374147
185	0x3d54b357	0.051928844
186	0xbe09bb8c	-0.1345045
187	0xbd2102f5	-0.03930946
188	0x3ddade24	0.10686901
189	0x3e1f0c03	0.15531926
190	0xbe7a5541	-0.24446584
191	0xbcdbaa32	-0.026814554
192	0xbdd8afb3	-0.10580387
193	0xbcbddb7c	-0.023175947
194	0xbbb5e4ad	-0.005550942
195	0x3d539e8d	0.051664878
196	0xbddc7e15	-0.10766236
197	0x3d937325	0.071996965
198	0x3e0a96f7	0.13534151
199	0x3d2ea049	0.04263333
200	0xbc6b0eac	-0.01434676
201	0xbd99ebb1	-0.07515658
202	0x3d8c70d7	0.0685746
203	0xbc984e0e	-0.018591907
204	0x3c9e420d	0.019318605
205	0xbdcfc3fe	-0.101448044
206	0x3bb02b45	0.005376252
207	0xbeb6b1f6	-0.35682648
208	0xbdd3a826	-0.10334806
209	0xbd256dc6	-0.04038789
210	0x3e19a0d3	0.15002756
211	0x3aafb0d3	0.0013404138
212	0x3e6a1987	0.228613
213	0x3d846c56	0.06465976
214	0xbd8a710c	-0.06759843
215	0x3d29c1a2	0.04144443
216	0xbd5b1de8	-0.053495318
217	0x3dc218d5	0.094773926
218	0x3bfe1146	0.007753524
219	0x3d8508ed	0.06495843
220	0x3c920455	0.017824331
221	0xbdd93419	-0.1060564
222	0x3d849410	0.06473553
223	0x3d7a7c0c	0.061153457
224	0xbd1cede1	-0.038312797
225	0x3c3441c7	0.011002011
226	0x3c17f6eb	0.009275178
227	0xbd92fb7e	-0.071768746
228	0xbdaf5ded	-0.08562837
229	0x3c4cb83d	0.012495098
230	0xbdd32bfa	-0.10311122
231	0x3e2eb702	0.17062
232	0xbd514966	-0.05109539
233	0xbe162f83	-0.14666562
234	0xbddc5715	-0.10758797
235	0xbd25e1a7	-0.040498402
236	0xbd68c4c9	-0.056828294
237	0x3e08a1b1	0.1334293
238	0x3c5ed9b7	0.013601712
239	0x3d0a6771	0.033790056
240	0xbd08ca26	-0.03339591
241	0xbd2f1c7d	-0.042751778
242	0x3d911757	0.0708453
243	0x3c2dbf5e	0.0106047075
244	0xbd7136b7	-0.05889007
245	0xbd72ad1d	-0.059247125
246	0x3db207d0	0.08692896
247	0x3d029d16	0.03188809
248	0x3dc0bfe1	0.09411598
249	0x3d7e37a4	0.06206478
250	0xbbd47beb	-0.0064844987
251	0xbd16c181	-0.036805633
252	0x3d924485	0.07141975
253	0x3b54b764	0.0032457942
254	0xbcbd5b34	-0.023114778
255	0x3d8ea231	0.06964529
