test/models/squeezenet1.0_nhwc/weights/fire5_squeeze_kernel.npy (npy, 32848 bytes, 1 tensors)

array f4 [1, 1, 256, 32]
0	0x3d55976a	0.052146353
1	0x3e0b3c27	0.13597165
2	0xbda95174	-0.08267489
3	0xbe212e11	-0.15740229
4	0xbe8bca5e	-0.2730283
5	0xbd4ea56e	-0.050450735
6	0xbd0e64bf	-0.034764048
7	0x3da5906d	0.08084188
8	0x3b2c601e	0.0026302407
9	0x3d8535fe	0.06504439
10	0x3d9ae317	0.07562845
11	0x3c219216	0.00986149
12	0xbe238291	-0.15967776
13	0x3d0c6292	0.03427369
14	0xbe03f6d1	-0.12887122
15	0x3d93c0ca	0.07214506
16	0x3c19fe94	0.009399075
17	0x3d938584	0.072032005
18	0xbe646467	-0.22303925
19	0x3c45af50	0.012065724
20	0x3e5b7c4f	0.21434139
21	0x3dc0e0a8	0.0941785
22	0xbdfc5721	-0.12321306
23	0x3e87685b	0.26446804
24	0x3de9dd70	0.11419189
25	0xbdb5143c	-0.0884175
26	0xbdae5125	-0.08511571
27	0x3ec3893d	0.38190642
28	0x3e3b9f80	0.18322563
29	0xbd9558a2	-0.07292296
30	0xbd888312	-0.06665625
31	0x3dddd540	0.1083169
32	0xbe721f34	-0.23644716
33	0x3e883af3	0.26607475
34	0xbe9cf3b8	-0.30654693
35	0xbe5a02cd	-0.21290131
36	0x3cce3af2	0.025174592
37	0xbc7957b0	-0.01521866
38	0xbe2864c3	-0.16444688
39	0xbe8792c9	-0.26479176
40	0x3d3f533c	0.046710238
41	0x3f20cfdc	0.6281717
42	0x3df88696	0.12135045
43	0x3ec863af	0.39138553
44	0xbd02fe56	-0.031980835
45	0xbe6c05d6	-0.23049101
46	0x3e14b692	0.1452277
47	0x3dd2cb7f	0.1029272
48	0x3dc2c2db	0.09509822
49	0x3d39454d	0.045232106
50	0xbeb195a5	-0.34684482
51	0x3c1544d0	0.009110644
52	0x3e458358	0.19288385
53	0x3dd77cfc	0.10521886
54	0xbe4d3832	-0.20040968
55	0x3e43b5b4	0.19112283
56	0xbdb08950	-0.0861994
57	0x3e3093ed	0.17243929
58	0x3e02fd94	0.12792045
59	0xbcd1e0ce	-0.02561989
60	0x3f1fd24b	0.62430257
61	0x3dba5aad	0.09099326
62	0x3d8b1d16	0.06792657
63	0x3ddf9f7c	0.10919091
64	0xbebdcbe6	-0.37069625
65	0x3ed8b07c	0.42322147
66	0x3e31fb50	0.17381024
67	0x3e44589f	0.19174431
68	0x3e04a9df	0.12955426
69	0x3d00ae8b	0.031416457
70	0xbe2c1830	-0.16806102
71	0xbe64cd5c	-0.22343963
72	0x3e052c99	0.13005294
73	0xbe894a98	-0.26814723
74	0x3cd2d3c0	0.025735736
75	0x3ba6e573	0.0050932704
76	0xbcb94616	-0.022616427
77	0xbd744094	-0.0596319
78	0xbe6c3d0b	-0.23070161
79	0x3dd5567f	0.104168884
80	0xbe2b588a	-0.16732994
81	0xbe9d1c1d	-0.3068551
82	0xbeb1f8b7	-0.34760067
83	0xbd13b347	-0.036059644
84	0x3bf7c3e4	0.007561194
85	0xbe58f4a3	-0.21187072
86	0xbe55aa0a	-0.20865646
87	0x3c840985	0.01611782
88	0xbdb9255e	-0.0904033
89	0x3e85d84f	0.26141593
90	0x3e7865bf	0.24257563
91	0xbc8a599e	-0.016888436
92	0x3e3588ab	0.17727916
93	0xbd865d7f	-0.06560802
94	0x3e534193	0.20630483
95	0xbe5e49e0	-0.21707869
96	0x3db8038f	0.08985054
97	0xbea49512	-0.32144982
98	0xbdda2187	-0.10650926
99	0x3e09544c	0.13411063
100	0xbd2455cb	-0.04012088
101	0xbdc140eb	-0.0943621
102	0xbe722d39	-0.23650064
103	0x3da38d26	0.07985906
104	0xbd930ddb	-0.07180377
105	0x3e76b27a	0.24091521
106	0xbc8eec6c	-0.01744672
107	0xbe320fc1	-0.17388822
108	0x3d9628e0	0.07332015
109	0xbd83bbb2	-0.064322844
110	0x3ec57ec3	0.38573274
111	0xbe58ba18	-0.21164739
112	0xbe4cdca0	-0.20006037
113	0xbe894360	-0.26809216
114	0x3ec5003e	0.38476747
115	0xbdc7db5a	-0.09758635
116	0xbce4bcb0	-0.027922004
117	0xbc868a3a	-0.016423333
118	0x3c636b52	0.013880568
119	0xbdda11b0	-0.10647905
120	0xbed32a1e	-0.4124307
121	0x3dddada8	0.10824138
122	0xbdaeb309	-0.08530242
123	0x3d9a14cd	0.07523499
124	0x3e0d6385	0.13807495
125	0x3e5e68ab	0.21719615
126	0xbe3b1f31	-0.18273617
127	0x3e7db066	0.24774322
128	0x3e5e82dd	0.21729608
129	0x3d9259e2	0.0714605
130	0xbda8b33b	-0.082373105
131	0xbd92abd0	-0.07161677
132	0xbd308b94	-0.043101862
133	0x3e005157	0.12531029
134	0xbd2a544d	-0.0415843
135	0x3e96c9e3	0.29450902
136	0x3d9baae0	0.07600951
137	0xba854588	-0.0010167817
138	0xbcb87db8	-0.022520885
139	0x3b37e594	0.0028060423
140	0x3e9045ce	0.28178257
141	0xbdc04d30	-0.09389722
142	0xbef68d89	-0.48154858
143	0xbe869c09	-0.2629092
144	0xbca7a605	-0.020464906
145	0xbe2edc12	-0.17076138
146	0xbde9b0fc	-0.1141071
147	0x3d98337c	0.07431695
148	0xbe3364d5	-0.17518933
149	0xbe5eaf94	-0.21746665
150	0x3c7f64bb	0.015587981
151	0xbddf9c25	-0.10918454
152	0x3de0978e	0.10966407
153	0xbe147847	-0.14499007
154	0x3d6d73b8	0.057971686
155	0x3e86334d	0.26211014
156	0xbe0d0dcf	-0.13774799
157	0x3e4e249c	0.20131153
158	0xbd810801	-0.06300355
159	0x3e2c6832	0.16836622
160	0x3f10abe1	0.56512266
161	0xbd82980f	-0.06376659
162	0xbc0bd8cb	-0.008535574
163	0x3dce4911	0.1007253
164	0x3f6d2a43	0.9264261
165	0xbe3bb44c	-0.18330497
166	0x3dc509cc	0.09621009
167	0xbc3c8bc1	-0.011507929
168	0x3c7fa169	0.015602448
169	0xbe1b25e7	-0.15151177
170	0xbe0aa368	-0.13538897
171	0xbe77a732	-0.24184874
172	0xbdbec6b6	-0.09315245
173	0xbe86f212	-0.2635656
174	0x3e613dae	0.21996185
175	0xbdbccd81	-0.09218884
176	0x3ded01b5	0.11572591
177	0x3db5e489	0.0888148
178	0x3e0c057a	0.13673964
179	0x3e92bcb4	0.28659594
180	0x3dbd7184	0.09250167
181	0x3e0fb411	0.14033534
182	0xbec2910d	-0.3800129
183	0x3e71357f	0.23555563
184	0x3f0fa6e3	0.56114024
185	0x3e04e2c1	0.12977125
186	0xbde3da1f	-0.11125588
187	0x3d9d557c	0.076823205
188	0xbb4c4f35	-0.003117514
189	0x3d1bc319	0.038027856
190	0x3d4e878b	0.050422233
191	0xbdd68ff3	-0.10476675
192	0x3e1157ca	0.14193645
193	0xbd8a694d	-0.06758366
194	0xbe4b6fe7	-0.19866906
195	0xbd0e8205	-0.034791965
196	0xbc2fec9f	-0.010737567
197	0x3eab52da	0.33461648
198	0xbc60655f	-0.013696044
199	0x3c1200bf	0.008911311
200	0xbdc80a19	-0.09767551
201	0x3dcc7d39	0.09984822
202	0x3d810898	0.06300467
203	0x3d72a5c8	0.059240133
204	0xbd4294b0	-0.04750508
205	0x3dac6e85	0.084195174
206	0xbd3c07de	-0.04590594
207	0xbde90871	-0.11378563
208	0x3dc2bb2b	0.09508356
209	0xbcd640a6	-0.026153874
210	0x3de7a724	0.113111764
211	0x3d17c1fc	0.037050232
212	0x3d129794	0.035789087
213	0x3af07b69	0.0018347326
214	0x3d491c1b	0.04909907
215	0xbddd4ffa	-0.1080627
216	0xbc32ec3d	-0.010920581
217	0xbd217a8c	-0.03942351
218	0xbdeb8d57	-0.11501568
219	0xbd636911	-0.05552012
220	0xbe98bb58	-0.29830432
221	0xbc9054fb	-0.017618647
222	0x3dd7ff49	0.10546739
223	0xbda02278	-0.078190744
224	0xbea8b8ba	-0.32953435
225	0x3e767cc0	0.24071026
226	0xbbd0386a	-0.0063543813
227	0x3e89843e	0.26858705
228	0x3d204954	0.03913243
229	0x3dcd9e0e	0.10039912
230	0xbd216feb	-0.039413374
231	0xbd0ec6df	-0.034857627
232	0x3dc17f82	0.09448148
233	0x3d9e19e7	0.07719784
234	0xbe0b0aaf	-0.13578294
235	0x3d13fdc6	0.03613069
236	0xbca0b2c4	-0.019616492
237	0xbd8db02f	-0.0691837
238	0xbdd39b54	-0.10332361
239	0x3dc047cc	0.09388694
240	0xbe3b7e0a	-0.18309799
241	0xbd278ee1	-0.040907744
242	0xbe5fe523	-0.21864752
243	0xbc3d82aa	-0.011566797
244	0xbb97bc07	-0.004630569
245	0x3d54e0df	0.051972266
246	0xbe6e99e8	-0.23300898
247	0xbdc96dfa	-0.098354295
248	0xbddf4867	-0.109024815
249	0x3ed53fc2	0.41650206
250	0x3ddce23a	0.10785337
251	0x3d7368fa	0.059426285
252	0xbcc8fe78	-0.024535403
253	0x3dd176c7	0.10227733
254	0x3df003be	0.11719464
255	0xbdbe8c50	-0.09304106
