test/models/squeezenet1.0_nhwc/weights/fire9_e1x1_kernel.npy (npy, 65616 bytes, 1 tensors)

array f4 [1, 1, 64, 256]
-0.18717207 -0.26717964 -0.24743113 0.27613878 0.06827238 0.3436908 -0.13122398 0.109823026
-0.1923021 -0.1268427 -0.29781887 0.012067897 -0.09032971 -0.0549765 -0.029920306 -0.2361136
0.07578033 -0.11857934 0.0897858 0.095653825 0.07679927 -0.36250773 -0.12345306 -0.3394917
0.26175725 -0.22045588 -0.1156166 0.18828546 0.23720479 0.16525425 -0.17865786 -0.15562679
-0.07997059 0.057476614 0.06265424 -0.06980307 -0.17184065 -0.1283906 -0.40003252 0.049143158
0.018660119 -0.22055766 -0.032326296 0.17285897 -0.27821526 -0.46760687 -0.12313339 0.16384788
-0.1617527 -0.3106632 -0.12152092 0.102090426 0.037221733 -0.016004182 0.15427218 -0.118295625
-0.36241442 -0.3339218 -0.00700253 0.008551205 -0.21560283 -0.096472204 -0.17508134 0.4692429
0.12811667 0.29340857 0.020854203 -0.23784257 0.090298355 -0.24296075 0.13677941 -0.11259323
-0.21070677 0.2097077 -0.38696346 0.015854996 -0.18502894 0.053161923 -0.13131194 0.02973749
-0.27171785 -0.02303135 0.04201147 0.211965 0.2667647 -0.21649167 -0.34444648 -0.13650051
-0.23579887 -0.20924608 0.019244157 -0.00609011 0.3614587 0.2708183 -0.061760787 0.2937275
-0.38021883 -0.13674295 -0.16714281 -0.28452966 0.047028154 0.25356388 0.025516026 -0.19004983
0.16865666 0.03063956 -0.27065724 -0.054929297 -0.16424595 -0.16837353 0.023957532 -0.32093248
0.0822616 -0.37318534 0.15610474 -0.22069877 -0.17598042 0.16897078 0.25533283 -0.20268762
-0.14322214 -0.42365578 0.19463833 0.011693054 -0.036147542 -0.4422728 0.24566919 -0.08553387
-0.27688977 -0.13474335 0.3435175 0.01427645 -0.04193227 -0.17574449 -0.2680234 -0.35848615
-0.37090445 0.07874254 -0.3295676 -0.15656842 0.40765914 -0.11515282 -0.2912802 -0.23178862
-0.17457004 -0.24138528 -0.16733006 -0.4731522 -0.16191193 0.025228025 -0.16587488 -0.16486894
-0.21423887 0.084604315 -0.19108973 0.04897528 0.051971048 -0.48266733 -0.24274686 0.14500348
-0.37746632 -0.104180396 -0.035420194 0.026099019 -0.082110226 -0.19032396 -0.058855783 -0.090687774
0.15515122 -0.100480914 -0.056085758 -0.03250972 -0.062290136 0.07846984 -0.022845669 -0.07286701
-0.061219323 -0.26466066 0.0928273 -0.11555251 -0.016074022 -0.4397404 -0.018885165 -0.13032852
0.008796079 0.108390965 -0.25607806 -0.19014986 0.07490229 -0.11337598 0.26825336 -0.066561654
0.10379372 0.1165502 0.09466448 -0.1457234 0.016264917 -0.043289844 -0.018282536 -0.008264014
0.2594704 -0.2510301 -0.07502914 0.12500653 0.019330846 -0.18595505 -0.028946115 0.085349
0.088965125 0.19471526 0.06386379 -0.22827923 -0.21763307 0.0968367 -0.0029700757 -0.18841031
-0.76053476 0.029511862 -0.17579801 -0.22930074 0.24428555 -0.32410333 -0.41146064 -0.21796024
-0.03876336 -0.19223435 -0.7062843 0.029189251 -0.38924098 0.045497596 -0.14431806 0.09369307
-0.17027402 -0.16296843 -0.22691175 -0.009985493 -0.0058837943 -0.011058415 -0.59409356 -0.030485712
-0.13471238 -0.30801314 -0.20015338 -0.10138448 -0.26017097 0.08626454 0.016539117 -0.2506059
-0.287842 0.08953005 -0.13038523 -0.55270594 -0.09763662 -0.052275237 0.25696293 -0.070415325
00000000: 09aa 3fbe c5cb 88be 965e 7dbe 1062 8d3e
00000010: 64d2 8b3d 3ef8 af3e 945f 06be e5ea e03d
00000020: d7ea 44be 0ee3 01be b77b 98be 6eb8 453c
00000030: c8fe b8bd 0a2f 61bd 6e1b f5bc c3c7 71be
00000040: b832 9b3d bad9 f2bd 9ee1 b73d 27e6 c33d
00000050: f048 9d3d 9d9a b9be f5d4 fcbd dbd1 adbe
00000060: 0c05 863e 30bf 61be 65c8 ecbd e7cd 403e
00000070: d0e5 723e 6938 293e 16f2 36be a15c 1fbe
00000080: 9fc7 a3bd 996c 6b3d de50 803d e9f4 8ebd
00000090: fff6 2fbe d378 03be 10d1 ccbe 564a 493d
000000a0: 1bdd 983c ded9 61be 9468 04bd f101 313e
000000b0: 3b72 8ebe 2b6a efbe 5c2d fcbd bdc7 273e
000000c0: 80a2 25be 3f0f 9fbe f6df f8bd c914 d13d
000000d0: d175 183d 341b 83bc 87f9 1d3e fa44 f2bd
000000e0: 628e b9be ccf7 aabe 7b75 e5bb 5a1a 0c3c
000000f0: fdc6 5cbe 3893 c5bd 8648 33be 9b40 f03e
00000100: 0431 033e a639 963e 6fd6 aa3c 018d 73be
00000110: 58ee b83d b4ca 78be e70f 0c3e 4897 e6bd
00000120: 84c3 57be 9ebd 563e 1320 c6be 56e2 813c
00000130: 3a78 3dbe 51c0 593d a376 06be 099c f33c
00000140: 9a1e 8bbe 3eac bcbc 3814 2c3d 5a0d 593e
00000150: 6295 883e feaf 5dbe 4a5b b0be cac6 0bbe
00000160: 4275 71be 9b44 56be eca5 9d3c 8c8f c7bb
00000170: 1d11 b93e b2a8 8a3e e1f8 7cbd 7363 963e
00000180: 0bac c2be 5806 0cbe 7c27 2bbe dfad 91be
00000190: 98a0 403d 20d3 813e fc06 d13c 6c9c 42be
000001a0: 55b4 2c3e d1ff fa3c 9693 8abe 8bfd 60bd
000001b0: 1730 28be 1c6a 2cbe 9642 c43c 4351 a4be
000001c0: c578 a83d 2612 bfbe ecd9 1f3e dcfe 61be
000001d0: 3634 34be ad06 2d3e fcba 823e 588d 4fbe
000001e0: d3a8 12be 69e9 d8be 454f 473e 3994 3f3c
000001f0: 720f 14bd 9571 e2be b490 7b3e 622c afbd
00000200: 7fc4 8dbe 29fa 09be 87e1 af3e c5e7 693c
00000210: 2cc1 2bbd 5df6 33be 5d3a 89be 7f8b b7be
00000220: 30e7 bdbe c543 a13d 16bd a8be 7953 20be
00000230: b3b8 d03e 3ed5 ebbd ae22 95be ff59 6dbe
00000240: 7dc2 32be b42d 77be 9258 2bbe 0141 f2be
00000250: 3ecc 25be 01ab ce3c 1bdb 29be 67d3 28be
00000260: 6f61 5bbe 0745 ad3d 07ad 43be 4e9a 483d
00000270: 98df 543d 2c20 f7be a292 78be cb7b 143e
00000280: 4443 c1be 885c d5bd c414 11bd 9ccd d53c
00000290: 6829 a8bd 49e4 42be c312 71bd 83ba b9bd
000002a0: f6df 1e3e f0c8 cdbd 2eba 65bd ea28 05bd
000002b0: f123 7fbd ccb4 a03d d726 bbbc 4d3b 95bd
000002c0: 1dc1 7abd 9a81 87be 3d1c be3d cba6 ecbd
000002d0: abad 83bc a725 e1be 10b5 9abc d774 05be
000002e0: 6e1d 103c 15fc dd3d aa1c 83be a5b6 42be
000002f0: 5f66 993d aa31 e8bd 8158 893e 7a51 88bd
00000300: cd91 d43d dfb1 ee3d 73df c13d 8438 15be
00000310: 013e 853c b150 31bd 42c5 95bc c965 07bc
00000320: 4ed9 843e 0487 80be e1a8 99bd b601 003e
00000330: b95b 9e3c 006b 3ebe 6720 edbc 75cb ae3d
00000340: 5933 b63d 7063 473e 05cb 823d 08c2 69be
00000350: 34db 5ebe 5252 c63d 9aa5 42bb a2ee 40be
00000360: 68b2 42bf dcc2 f13c 6504 34be d0cd 6abe
00000370: fe25 7a3e dff0 a5be f8aa d2be f830 5fbe
00000380: 54c6 1ebd 15d9 44be 0ccf 34bf 4c1e ef3c
00000390: 984a c7be b05b 3a3d 1dc8 13be 27e2 bf3d
000003a0: 505c 2ebe 32e1 26be 8e5b 68be 319a 23bc
000003b0: d8cc c0bb 5b2e 35bc 8416 18bf 2cbd f9bc
000003c0: 0bf2 09be e6b3 9dbe 02f5 4cbe aba2 cfbd
000003d0: 2135 85be 77ab b03d 0b7d 873c 6b4f 80be
000003e0: 0760 93be 885b b73d b583 05be 237e 0dbf
000003f0: b5f5 c7bd 8f1e 56bd a590 833e e935 90bd
