test/models/squeezenet1.0_nhwc/weights/fire9_e3x3_kernel.npy (npy, 589904 bytes, 1 tensors)

array f4 [3, 3, 64, 256]
000000 ba 51 cd 3d bc d8 4c bd 6f 46 5b be b1 4b ba bb
       0.10025354 -0.05001138 -0.21413587 -0.0056852927
000010 d0 6f 7a bd fc 7f ba 3c 5a b8 c4 bd 35 87 5a 3d
       -0.06114179 0.022766106 -0.09605475 0.0533516
000020 76 1e b5 39 16 f5 28 be 44 cd 93 bd 5c e5 06 3c
       0.00034545705 -0.16499743 -0.07216886 0.0082333945
000030 dd 12 85 be 58 6f e6 bd b5 8e a6 bd d4 71 1e be
       -0.25990954 -0.11251706 -0.08132688 -0.1547311
000040 96 21 dc bd 8b 09 47 bd 75 d7 a9 3b d8 a7 14 bd
       -0.107485935 -0.048593085 0.005183155 -0.03629288
000050 e3 8c ee 3c 99 85 39 3d aa 4c c3 bd 1c e7 90 bd
       0.029119914 0.045293424 -0.09536107 -0.070753306
000060 b8 69 80 be be d6 bd bd 1f 41 e2 bb 3f 68 2a bc
       -0.25080657 -0.092694744 -0.0069047357 -0.010400831
000070 63 87 ed ba 4d 5e 81 bd 3f 9a 54 3c fc 3f cd 3d
       -0.0018122013 -0.063168146 0.012976228 0.1002197
000080 52 8d 23 bd bf bb 02 bd 31 b8 4a be 0e 7c d2 3c
       -0.039929695 -0.03191733 -0.19796826 0.02569392
000090 57 db b1 3d dd 15 bf bd 6a 83 8f bd bc 07 22 bd
       0.08684414 -0.09330342 -0.07007487 -0.039558157
0000a0 34 bf f9 bc 0e bd ee 3a f5 06 7e 3c f0 af 05 bd
       -0.03048668 0.0018214302 0.015504588 -0.03263849
0000b0 f4 4f ee bc 1a c0 a9 bd 07 c5 4e bd e8 13 01 be
       -0.029090859 -0.082885936 -0.05048087 -0.1260525
0000c0 bf 6a 25 be f1 f6 09 bc 87 12 e9 bc bb e3 03 3d
       -0.16154002 -0.008420692 -0.028451217 0.032199603
0000d0 c5 ab 52 be 83 fb 2c be 69 a4 5f 3d e8 8c 54 3c
       -0.20573337 -0.16892819 0.054600153 0.012973048
0000e0 4c 8f e0 bb 4a 18 7b ba ed ea c5 bd 1d 0b 8a be
       -0.00685302 -0.00095785095 -0.09663949 -0.26961604
0000f0 e1 3e b3 bd 81 b7 3f be 0a 4c d6 3b 42 5e 15 3a
       -0.087522276 -0.18722345 0.0065398263 0.00056979444
000100 87 f9 61 3d 1a 1d 29 bd 01 d9 24 be a6 9f 24 bd
       0.05516961 -0.04128752 -0.16098405 -0.040191315
000110 91 b3 b3 bd bb 00 c6 bd 6a f3 ba 3d 8f 81 20 be
       -0.08774484 -0.09668108 0.09128459 -0.15674423
000120 63 c9 ef bc 67 64 11 bd 09 14 9c bd 7d 50 ea bc
       -0.029270833 -0.03549614 -0.07621009 -0.028602833
000130 9b bc 52 bd 97 82 83 be f8 a1 b9 bd 6e 8b 60 be
       -0.0514494 -0.2568557 -0.09064096 -0.21928188
000140 c3 77 9a bd ad 75 01 3c ae f1 16 bd 81 88 db bd
       -0.07542374 0.007901591 -0.036851577 -0.107193954
000150 0d d3 00 39 ec f4 69 be d7 7f bb bc fd 84 be bd
       0.00012285654 -0.22847337 -0.022888107 -0.09302709
000160 95 61 89 bd 92 35 a4 bd d5 b6 e6 bd fd 13 37 be
       -0.067080654 -0.0801803 -0.11265341 -0.17878719
000170 a7 cc ac 3d 03 0b e9 bd 4f ac ce bd e5 20 a6 ba
       0.08437472 -0.113790534 -0.10091459 -0.0012674598
000180 06 78 4b bd 9a ed 4c bd bb 28 31 be 76 d5 d7 bc
       -0.04967501 -0.050031282 -0.17300694 -0.026346903
000190 e7 80 62 3d 40 7f 62 be c8 df 78 bd b6 39 21 bd
       0.055298712 -0.22118855 -0.06076029 -0.039361678
0001a0 88 f7 e0 bd d0 8d 70 bd 6f 50 25 bd be fc 13 3d
       -0.10984713 -0.058728993 -0.04035991 0.036129706
0001b0 02 76 48 bd 22 b6 60 3d 44 03 80 bd c4 df 08 bc
       -0.048940666 0.054861195 -0.06250623 -0.008354131
0001c0 01 4e 2e bd b4 45 c6 bd 0d 9a 0a 3d b0 d9 54 bd
       -0.04255486 -0.096812636 0.03383832 -0.051965415
0001d0 8b 74 29 3d 93 53 32 be 44 62 77 bd d9 4c 9d bd
       0.04137091 -0.17414694 -0.060396448 -0.07680673
0001e0 86 9b e0 bb 79 ef e2 bd b8 e1 85 bc 97 4d 21 be
       -0.0068544773 -0.11080832 -0.016342983 -0.15752254
0001f0 d1 67 c1 bd c2 d3 39 be c9 ff 0d be c7 b3 0f 3e
       -0.094436295 -0.18147185 -0.13867106 0.14033423
000200 dc 36 a4 be 2f fc 91 3d 25 bd a0 bc fd f7 51 be
       -0.32073104 0.07128178 -0.019621441 -0.20504756
000210 6b 2c 84 be c0 e6 10 3d c5 0d 21 bd a4 12 fe 3d
       -0.25815138 0.03537631 -0.039319772 0.12405899
000220 f4 20 d1 bc c3 cd 02 be 0f 30 b5 bd 70 82 2a 3c
       -0.025528409 -0.12773804 -0.08847057 0.010407075
000230 1a d6 ad bd b4 50 6d 3d bb 8b 39 bd 99 d0 f5 bd
       -0.08488102 0.057938293 -0.045299273 -0.120026775
000240 31 8e f4 bd f2 77 7e bb 96 64 8c bc 88 3a 01 bd
       -0.11941183 -0.0038828817 -0.017137807 -0.03154996
000250 a3 9e 1e be f6 8e 0d be ca 71 1a be e5 dd 11 bd
       -0.15490203 -0.13824067 -0.1508247 -0.035612006
000260 2c 64 57 3d cb 8a b0 bd 36 fb 75 bd d6 42 67 3d
       0.052585766 -0.08620223 -0.060054027 0.056460224
000270 d4 93 1d bc 5f e5 a5 3b c9 d6 9a bd f3 bd 23 3d
       -0.0096177645 0.0050627436 -0.07560498 0.03997607
000280 13 e5 0b 3e 55 d5 a0 bc 93 f1 50 be 89 63 1e be
       0.13661604 -0.019632975 -0.20404653 -0.15467657
000290 43 c3 36 ba f1 94 38 be 47 22 c5 bd f9 e1 16 be
       -0.0006971845 -0.18025567 -0.096256785 -0.14734639
0002a0 fe 77 48 3e 25 18 5c bc c7 63 c3 bd b4 e6 ed bd
       0.19577023 -0.013433491 -0.095405154 -0.11616269
0002b0 a0 40 97 3c b6 97 63 3b 35 d2 9f bd f6 42 a4 bd
       0.018463433 0.0034727878 -0.07803766 -0.08020584
0002c0 85 da 8f 3c 99 47 53 bd 40 a7 e2 3b 3d 50 48 be
       0.017560253 -0.051581953 0.0069169104 -0.19561858
0002d0 b2 25 fc bd 01 cf 0b bd d8 d3 21 bd 35 2c 24 bd
       -0.12311877 -0.03413296 -0.03950867 -0.04008122
0002e0 f6 24 0e bd 61 48 30 be 3b 97 4b b8 22 11 19 bd
       -0.034703217 -0.1721511 -4.8539816e-05 -0.037369855
0002f0 aa 27 34 bb 83 be 93 bd ab 60 3b be 83 1a 24 be
       -0.0027489462 -0.072140716 -0.18298595 -0.16025738
000300 a7 60 ca b9 ba 91 06 bc 78 2d 9b 3c 94 af 3c be
       -0.00038600454 -0.008213455 0.01894258 -0.18426353
000310 12 2a 26 bc b3 3c 9c bc 17 4d 4c 3d a3 70 91 bd
       -0.010141866 -0.019071912 0.049878206 -0.07101562
000320 dc 94 f3 3d 1b cb 1f bc fd 9c ee bd b4 5d 00 bb
       0.11893627 -0.009753014 -0.11651037 -0.0019587101
000330 82 ba f3 ba bc 4f 0e be 08 d2 91 bd bd 66 3a be
       -0.0018595012 -0.13897604 -0.071201384 -0.18203254
000340 c0 80 77 3b 40 50 41 bd 90 91 14 3e 20 16 d2 bd
       0.003776595 -0.047195673 0.14508653 -0.10258126
000350 04 e7 5e 3d 97 40 ce bc 7c 35 2a 3d d3 2b 2d bc
       0.054419532 -0.025177283 0.041554913 -0.010569531
000360 06 58 28 be 1a 74 9a bd 37 cd 40 3d 7a 46 c9 3d
       -0.16439828 -0.07541676 0.047070708 0.098278955
000370 b1 ee f9 bc e2 56 d1 bd 85 62 2d be 11 2a 4b bd
       -0.030509325 -0.1022165 -0.16932113 -0.049600665
000380 13 f4 b5 bd ca cd 3b be bb 45 b5 bd 01 94 d8 3b
       -0.08884444 -0.18340221 -0.08851191 0.0066094403
000390 28 e3 0d 3d 9a b8 51 3d 53 a3 38 bd a1 64 b0 bd
       0.03464046 0.05120144 -0.045077633 -0.086129434
0003a0 55 30 22 3d 51 83 ac 3d 63 c6 d7 bd f0 f1 27 3d
       0.039596874 0.08423484 -0.10535886 0.041002214
0003b0 c0 5f 8e be 2d a9 12 be e8 21 e7 be 50 9a 09 be
       -0.27807426 -0.14322348 -0.45143056 -0.13437772
0003c0 c0 b3 52 be fa ac a9 bd 8f a4 85 bd df 3b d7 bc
       -0.20576382 -0.08284946 -0.06525528 -0.026273666
0003d0 cf e5 6c be 70 5b 62 bc 82 66 a8 be 96 26 6b be
       -0.2313454 -0.013815746 -0.32890707 -0.22963938
0003e0 a2 4f 53 bd 1c 1f 97 bd 54 b9 1b be 6f 95 04 3e
       -0.051589616 -0.073789805 -0.15207416 0.1294763
0003f0 b9 73 a9 bc 57 5a 89 bd 00 af ee 3c 31 28 1c be
       -0.020685064 -0.06706684 0.02913618 -0.15249707
