test/models/squeezenet1.0_nhwc/weights/fire5_e1x1_kernel.npy (npy, 16464 bytes, 1 tensors)

array f4 [1, 1, 32, 128]
00000000: 1e8f 47be 02fc 59bd 13f8 0cbc 5953 13be
00000010: 5d86 ab3d 005f 4cbe c205 abbb 961a 433e
00000020: be5a f23d a2f2 6c3e 325d 7d3d 47ef e4be
00000030: fe81 cd3c f763 24be 229e 963c 6013 9f3e
00000040: fc68 863e 3aa9 8ebe 36bb a83e 8bd4 3ebe
00000050: add2 b53e e8a5 c53a 8c6d 753d ac76 0b3e
00000060: 92e9 82be 4ef6 2b3e 2a05 cc3e 5a3d 81be
00000070: c6cf 26be 335f 143e 480c a23b 47a4 52bd
00000080: 1f26 28be e599 313e 449b a03d 0fed e3bd
00000090: 9cbb a4bd cb69 ba3d 4c6a 51be b8b2 803e
000000a0: 976c 883e f90c 233e 8ffc 013e a88b 9c3d
000000b0: 6e17 343d b533 e23d 79a1 3cbe 0085 ca3d
000000c0: 4c8a 26be f6a3 f33d a9d6 d2bd de8e 5b3e
000000d0: c40a 7fbd 52b6 5dbe 4d6e 153c a129 e6be
000000e0: 6842 c3bd 2863 d83d a06d 12bc 472e 043e
000000f0: a521 aebe a961 28be 09b7 103e 3cf3 61be
00000100: 8d44 113e c4bb e4bd ec4a eebb 2c1c 98be
00000110: 01cc cfbd 8b34 433d 48bc 3bbe 0462 2c3e
00000120: eb34 32bd a0ce 48be d43f adbd a956 53be
00000130: c6fc b8be 82cc d23d f60f a53e 6939 fabd
00000140: 9bfa 833e 2eef 13bd 1530 87bd 8a5d 3f3c
00000150: 9b3a 703e 984f cebe 0aab 95be 2ef8 babe
00000160: 85ce 3c3e 357d 48be f9f7 30bd 6b27 433e
00000170: 1c85 943c 1a67 f93c fbe5 e4bc 4ba2 29bd
00000180: bd64 69bc 6744 b6bd df2b 54be 908d a6bc
00000190: 7933 893e 20d3 0fbd ec08 bbbc 5c58 20bd
000001a0: 1bcd 75bd 0280 693d d724 76be e1d1 0abf
000001b0: 782c 61bd db81 23be a582 84be d87b c6be
000001c0: 1164 6e3e 4606 0f3d ecf7 92be 2e50 af3c
000001d0: 10b7 1b3e 9394 6a3e d308 d63e f03a 9dbe
000001e0: b781 a83d b715 81be 0d7e 433e 1c01 ba3d
000001f0: bdc4 463c 3ad1 693e b50e da3a 1e6e 31be
00000200: 437d 823e 05ac 29bd 839f dfbd c4b4 89be
00000210: cd7e 143e 7a16 783d c9fd 30bc a605 58be
00000220: 9a4a 583d 3597 e53c 1134 b2bd 1211 1c3e
00000230: 50de 53bd eb7d b1bd 75e3 9ebd c152 01be
00000240: a56b 8abc 5547 e03d 3f49 19be b949 c4bd
00000250: 9f4d ebbd eb8c 0a3e 373f 733e 76dd 1ebe
00000260: cbcc 853d ea10 d53e c8f9 e0bd b12b 3b3e
00000270: de11 85bd b943 8dbd c1e6 37be bb3c 21be
00000280: 43cb 8b3d 5be9 70be 2ff2 5cbe 54df d1bd
00000290: caf6 b43c 189f 443d a5c4 9d3b 29fe bd3d
000002a0: 3bd3 87be 02ed ebbd 3503 4fbe 8cf1 4ebd
000002b0: 9d9b 273e d0ee 9c3d 0ca1 c03d b5e7 81be
000002c0: bae1 15bd 6d56 b63e 74b4 d1bd 9744 a23e
000002d0: e274 0e3c 40ac b03d 5994 b5bd be0a 2fbe
000002e0: 7bd3 b4be 8c54 a6be 180e 9b3e 4567 40be
000002f0: 972a 4bbe 9f5a c0bd a428 713e 381c 14bd
00000300: 6149 11be 57ec d9bd b54f 8ebd 4527 e6bc
00000310: 607e 073d bd5e b4bd 80d8 4d3e 034b 09be
00000320: 15b4 d33c 2236 5cbe 58b9 df3d 410d fb3d
00000330: 6591 ae3d 7787 1b3e d5d2 303c 3c51 37be
00000340: d6cb 753e 573e 8cbe c7cb c2bd 1d20 1cbe
00000350: d6a6 1c3c 4bca e5bd ae9d 1a3e 825e 12bc
00000360: 99b3 163d 3595 babe 4727 5d3e 61a6 993c
00000370: 1bd3 74bd 5732 29bd cabc b23d 8eeb 4f3e
00000380: 9acb c0be fe2b ce3c 2054 f9bd c14f b4bd
00000390: f6a2 943d cc5a 91be 687b 333d 321c 5a3d
000003a0: e480 153d 8efa bfbe d44c 673e e436 f9bc
000003b0: 296e 4a3d c801 e23d c052 97bd 9229 b53e
000003c0: 09a9 1abe ef83 1d3d 6afd 1f3e cfea 573e
000003d0: 2104 8d3e 9aab 3fbd dcee f63e 9a09 103e
000003e0: d27b b83d efa6 553d 7e7d 22be 9386 31be
000003f0: d9be d53d 124d 8abd b928 c7be c9c8 6bbd
-0.19488189 -0.05321885 -0.008604067 -0.14387263 0.08375237 -0.19958115 -0.0052191922 0.1905311
0.11833714 0.23139432 0.061856456 -0.44713804 0.0250864 -0.16053759 0.01838595 0.3106947
0.26251972 -0.27863485 0.3295533 -0.18635766 0.35512295 0.0015079351 0.059918925 0.13619488
-0.25568825 0.16793177 0.3984769 -0.2524212 -0.16290197 0.1448944 0.0049453117 -0.0514262
-0.16420792 0.17343862 0.078421146 -0.111292 -0.08043596 0.0910221 -0.20450705 0.25136352
0.26645347 0.15922917 0.12694 0.07643825 0.043967657 0.110450186 -0.18420972 0.09888649
-0.16263694 0.118965074 -0.102948494 0.21441218 -0.062266126 -0.21651581 0.009120536 -0.44953635
-0.0953415 0.105657876 -0.008937269 0.12908278 -0.34010044 -0.16443504 0.14132322 -0.22065443
0.14186306 -0.11168626 -0.007272115 -0.29708993 -0.101463325 0.04765753 -0.18333542 0.16834265
-0.043507498 -0.19610071 -0.0845944 -0.20638527 -0.3613035 0.10292913 0.3223874 -0.12217981
0.25777134 -0.03611677 -0.06600968 0.011680016 0.23459856 -0.402951 -0.29232055 -0.3651747
0.18438156 -0.19579013 -0.043205235 0.19058006 0.018129878 0.03044467 -0.027941694 -0.04141454
-0.014245209 -0.088997655 -0.2071986 -0.020331174 0.26797083 -0.035113454 -0.022831403 -0.039146766
-0.060010057 0.057006843 -0.24037491 -0.542265 -0.05497405 -0.15967505 -0.25880924 -0.3876636
0.2328036 0.034918092 -0.28704774 0.021400537 0.15206552 0.22908239 0.41803607 -0.30709028
0.08227866 -0.2521188 0.19091053 0.09082243 0.012131867 0.2283372 0.0016636463 -0.17327163
0.25486192 -0.041423816 -0.10919096 -0.26895726 0.14501496 0.06056831 -0.010802695 -0.21095905
0.05280552 0.028026203 -0.08701337 0.15240887 -0.051725686 -0.08666595 -0.07758228 -0.12629224
-0.016897032 0.109511055 -0.14969347 -0.09584374 -0.114894144 0.13530318 0.23754583 -0.15514168
0.06533202 0.41614467 -0.10985142 0.18278386 -0.064975485 -0.06897683 -0.1795912 -0.15745823
0.068258785 -0.23526518 -0.2157676 -0.102476746 0.022090334 0.048003286 0.0048147016 0.09276993
-0.26528344 -0.11519815 -0.20216067 -0.050523326 0.16367956 0.07662737 0.09405717 -0.2537209
-0.036592223 0.35612813 -0.10239497 0.31692955 0.008694859 0.08626604 -0.08866186 -0.17093942
-0.35317597 -0.3248638 0.3028419 -0.18789394 -0.19840465 -0.093922846 0.2355066 -0.036159724
-0.14188148 -0.106407814 -0.06948797 -0.028094897 0.033079505 -0.088071324 0.2010212 -0.13407521
0.025842706 -0.21505025 0.109240234 0.12258387 0.085238256 0.15188394 0.010792454 -0.17902082
0.24003538 -0.27391312 -0.09511524 -0.15246625 0.009561261 -0.11220225 0.15099213 -0.008933665
0.03679237 -0.3644196 0.21597014 0.018756093 -0.05977164 -0.041307773 0.08727415 0.203047
-0.37655336 0.025167461 -0.12174249 -0.08804274 0.07257645 -0.28389585 0.04381886 0.053249545
0.036499873 -0.37495846 0.22587901 -0.030421682 0.049421463 0.11035496 -0.0738883 0.35383278
-0.15103544 0.0384559 0.15624014 0.21085666 0.27542213 -0.04679451 0.4822911 0.14066163
0.09007992 0.052161153 -0.15868184 -0.17336492 0.10436792 -0.06752981 -0.38898256 -0.05756453
