test/models/squeezenet1.0_nhwc/weights/fire8_e3x3_kernel.npy (npy, 589904 bytes, 1 tensors)

array f4 [3, 3, 64, 256]
000000 c9 c1 12 3d 18 73 8d bc 98 ec 7a 3d 07 14 ad 3c
       0.03582934 -0.017266795 0.06126079 0.021127714
000010 4f 4b 32 bd 57 1c 68 3d b9 11 c5 bd 25 80 07 3c
       -0.04352885 0.056667652 -0.09622521 0.008270298
000020 58 98 94 bd 9d ae 83 3d bd 19 d9 3d 87 25 89 3d
       -0.0725562 0.06429789 0.10600612 0.06696611
000030 2f c9 13 bc 31 bc 06 be 85 e0 54 bd 8d 42 c8 3c
       -0.009020134 -0.13157727 -0.05197193 0.024445796
000040 ce 1f e7 3d 8c 74 8f 3e 53 03 09 3d 7b dd 6a 3d
       0.11285363 0.28018606 0.033450436 0.057340126
000050 31 e3 3d bc b7 d5 0b 3d 15 01 bb 3c f5 55 7a bd
       -0.011589811 0.03413936 0.022827664 -0.06111713
000060 05 f8 d4 bd 2f b4 3f be 59 85 81 be de 7e 77 bd
       -0.103988685 -0.18721078 -0.2529705 -0.060423724
000070 d5 0e b7 bd 60 b0 c9 bd b1 ae a3 3c 45 a4 b1 3d
       -0.08938376 -0.09848094 0.01998076 0.0867391
000080 4a 50 af bd 7a d6 a6 3d 57 e7 8a be 5d 2c 39 3d
       -0.08560236 0.08146377 -0.27129623 0.045208324
000090 0c 48 80 bd 89 68 91 bd 60 43 5b be 5a ac 49 bd
       -0.06263742 -0.071000166 -0.2141242 -0.049236633
0000a0 f2 41 b0 bd d2 11 01 3e f9 a8 1d 3e bd a1 75 3d
       -0.08606328 0.12604454 0.15396489 0.0599687
0000b0 03 c1 13 3c 3d b8 b1 3c 7a ed 9c 3d b3 d1 d1 3c
       0.009018186 0.021694297 0.076624826 0.025612688
0000c0 9a d0 56 3b 92 0a d0 bd 75 52 91 bd 06 7d a1 3d
       0.0032778145 -0.10158266 -0.070958056 0.078851745
0000d0 dc 9d fb bc ba fd 47 bd 65 c0 0d 3d f7 a9 e0 bd
       -0.030714922 -0.048825957 0.03460731 -0.10969918
0000e0 ef f9 d7 bd 92 6f 84 bb ad a2 f0 bc 89 da 93 3a
       -0.10545718 -0.0040416205 -0.029374445 0.0011280339
0000f0 ca a5 10 bd 3b 71 d7 3d c3 0c eb bc 12 eb 56 be
       -0.03531436 0.10519644 -0.028692609 -0.2098811
000100 00 18 98 3d 5e 0a 96 be 88 88 23 be 57 9d 8f bd
       0.07426453 -0.29304785 -0.15970051 -0.07012432
000110 b3 9b b3 3b 39 80 32 bd 64 97 10 bd da 53 e1 3d
       0.0054812073 -0.043579314 -0.035300627 0.110023215
000120 32 c1 03 bd d1 da 01 be 19 30 6c 3d 86 5a 03 3e
       -0.032166667 -0.12681128 0.057663057 0.128275
000130 05 29 1b 3c 56 ff ad bd f8 5e 0d 3e 92 e3 04 3e
       0.009470229 -0.08495967 0.13805759 0.12977436
000140 4f f4 e3 bd ff 0a f5 bc 0e 66 d2 3c 1b bd 0a be
       -0.111305825 -0.02991247 0.02568343 -0.135487
000150 a3 91 96 3d 51 2d fe bd 3e 04 aa 3d 39 8e 0d bd
       0.07351997 -0.12410987 0.083015904 -0.034559462
000160 e1 6b d2 bd f3 91 86 bd 5e 59 f4 bd ca 21 44 3d
       -0.102744825 -0.06570806 -0.11931108 0.047883786
000170 da 86 32 bd 84 49 0a 3c 71 84 37 3d 39 34 36 bd
       -0.043585636 0.008440379 0.04480404 -0.044483397
000180 11 9a 0e bd 05 00 85 3d 3f 9c 9a 3d dd cc 98 bd
       -0.034814898 0.06494144 0.07549333 -0.074609496
000190 61 01 a5 3d d3 8e ac bd 82 88 15 3e f8 59 2a 3e
       0.08056904 -0.08425679 0.14602855 0.16635883
0001a0 36 2c c3 bd 9b 59 f1 bd bd 18 a8 3d 33 25 74 bc
       -0.09529917 -0.11784669 0.082078435 -0.014901447
0001b0 b3 cd 04 3c 40 bd 83 3d 2c 7b 40 3d 09 a4 a3 bd
       0.008105683 0.06432581 0.046992466 -0.079902716
0001c0 cf ff 48 bd 68 27 2d 3b 34 1b 8c 3e 72 69 7e bd
       -0.049072083 0.0026421193 0.27364504 -0.06211228
0001d0 5f f5 06 bd d4 ac d5 bc b7 0c b9 3e 4d 51 1b 3d
       -0.032948848 -0.026083387 0.36142513 0.03791933
0001e0 35 1e 1a 3c 6d fb d2 3b 8b 89 2d be ba f3 e9 bc
       0.009406616 0.0064386637 -0.16947 -0.0285586
0001f0 e5 87 88 3d 5b 49 05 3e b3 13 61 3d 3e c8 28 3d
       0.06666545 0.13016264 0.054950427 0.04120659
000200 f0 1f 43 3e a0 70 88 bd 82 6b bb bd fa 14 b8 3d
       0.19055152 -0.066621065 -0.09151365 0.08988376
000210 81 9f ac 3d 01 52 0b 3e 5d 03 10 3c d3 fd 9b bd
       0.084288605 0.13605501 0.008789864 -0.076167725
000220 40 9e ec bd e4 99 8e 3d 9e 66 24 3d 58 82 3e be
       -0.11553621 0.06962946 0.040136926 -0.1860441
000230 20 57 ea bd 6a 9a b9 bc b4 5a 10 be 33 fa 18 ba
       -0.11442399 -0.022656638 -0.140971 -0.00058356224
000240 4d 06 a0 3d 42 60 0a 3d 8f c1 4a 3d 3b fd 2d be
       0.07813702 0.033783205 0.049500998 -0.16991131
000250 54 54 38 be e6 df a6 bd 51 e6 0b 3e 31 52 c0 3d
       -0.18000919 -0.08148174 0.13662077 0.09390677
000260 80 68 21 be 60 c8 8a be af 09 e5 3d bc 51 a1 3b
       -0.1576252 -0.27106 0.111834876 0.0049230736
000270 2c 10 ed 3b 28 c3 01 3e 68 41 11 be 40 62 df bb
       0.007234594 0.12672102 -0.14185107 -0.0068171322
000280 a3 84 1b 3d a9 7b 84 3e 40 c8 12 bd 38 9a 0c be
       0.03796829 0.25875595 -0.035835505 -0.13730705
000290 27 77 0f be f6 66 2d 3d 4f 51 f2 3d e2 d5 b0 3d
       -0.14010297 0.04233452 0.11831915 0.08634545
0002a0 5c 5f 60 bd d2 ad fc bd 90 fc 1c bd 5d 19 23 3d
       -0.05477844 -0.12337841 -0.0383268 0.03981911
0002b0 53 63 a6 bd 27 e8 c8 bd a0 f1 08 be 6b 73 1a 3e
       -0.08124413 -0.098099045 -0.13373423 0.15083091
0002c0 0f 7c e4 3c 2c 41 1e be d6 b3 10 bd ac 64 27 bb
       0.027891187 -0.15454549 -0.035327755 -0.0025542183
0002d0 2c 08 b0 bc 78 d3 b2 3d ef 87 3a be 73 63 72 bd
       -0.021488272 0.08731741 -0.18215917 -0.059176873
0002e0 21 32 8e 3d 6a e3 9b 3d 13 b2 e0 3d bd 7a 48 3d
       0.06943155 0.07611735 0.10971465 0.048945177
0002f0 51 78 59 be 57 39 f1 3d cf 77 3e 3d 9c d8 40 be
       -0.21237303 0.11778515 0.046500977 -0.1883263
000300 8f 4c f0 bd 6c 65 66 be 11 fa e8 bd 3b 8e 29 3d
       -0.117333524 -0.22499627 -0.113758214 0.041395407
000310 5d 96 f6 bc 56 b7 81 3e 44 dd 7d bd 8d a5 69 bd
       -0.030100996 0.25335187 -0.061978593 -0.057042647
000320 cc f5 b8 3d 72 8d d2 3c 26 bf e8 bc ba 4a 48 bc
       0.09031257 0.025702212 -0.02841146 -0.012224847
000330 0d 87 6a 3d c0 ee 9a bd f9 66 88 bd 4e 44 37 3d
       0.0572577 -0.07565069 -0.066602655 0.044742875
000340 b6 98 e3 bb 24 c9 06 be 64 c1 93 bc ad 2a 71 3e
       -0.006945695 -0.13162667 -0.018036552 0.23551436
000350 d8 6b 38 3d 91 32 4f bd ad ae cc 3c 70 8a 9d 3d
       0.045024723 -0.050585333 0.024985636 0.076924205
000360 56 04 e2 bd a2 c6 b2 3c 1c 8a 43 bc 20 26 ab 3c
       -0.11035983 0.021823231 -0.011934783 0.020892203
000370 1d 0c 20 3e 23 25 10 3e d7 71 d2 bc f3 d2 b9 3d
       0.15629621 0.14076667 -0.025689049 0.090734385
000380 e0 50 f5 bd 8a 95 0a 3d 61 c3 49 bd 48 31 00 bc
       -0.11978316 0.033834018 -0.049258593 -0.00782425
000390 8a 13 c0 3c 8b 43 94 bd be ab 52 3d 10 c7 bc bc
       0.023446817 -0.07239445 0.051433317 -0.02304414
0003a0 cd 5a 4f 3d 20 5f bd 3d 3f 8f dd 3d 85 58 5c 3e
       0.050623704 0.09246659 0.10818338 0.21518143
0003b0 d2 e8 f3 3c 4d c7 73 3c df 13 a3 bd a0 1d 18 bd
       0.029774103 0.01487906 -0.079627745 -0.037137628
0003c0 39 8d 9f bd cc 95 4b be c8 06 1d bd c1 b8 1a be
       -0.07790608 -0.19881362 -0.038336545 -0.1510954
0003d0 da 81 42 bd 90 ed 7e bc d5 34 73 3d ed ff d1 bd
       -0.047487117 -0.015559569 0.059376556 -0.10253892
0003e0 38 8c 0b bd f3 b8 a6 3d eb 90 e4 bb bf 69 36 3c
       -0.03406927 0.08140745 -0.0069752834 0.01113361
0003f0 df 66 97 3d 05 98 5e bd ad eb 12 bd 60 a1 98 3c
       0.07392668 -0.054344196 -0.03586929 0.018631637
