test/models/squeezenet1.0_nhwc/weights/fire4_e1x1_kernel.npy (npy, 16464 bytes, 1 tensors)

array f4 [1, 1, 32, 128]
0	0x3d84a863	0.0647743
1	0xbe1d725c	-0.15375656
2	0xbee04964	-0.43805993
3	0xbe42189a	-0.18954697
4	0x3e156396	0.1458877
5	0x3d1da70a	0.03848938
6	0x3e30568d	0.17220517
7	0xbce3edee	-0.027823415
8	0x3d90cdde	0.07070516
9	0x3d71c4fb	0.059025746
10	0x3d865f3a	0.06561132
11	0x3d7e9631	0.062154952
12	0x3db7b28c	0.08969602
13	0xbdda0a68	-0.10646516
14	0xbca2a673	-0.01985476
15	0x3dde3829	0.108505554
16	0x3e982479	0.29715326
17	0x3da1eb40	0.079061985
18	0x3e0ad997	0.13559566
19	0xbd2e412b	-0.042542618
20	0x3e0550ff	0.13019179
21	0x3db8b6c0	0.09019232
22	0x3bce5760	0.006297037
23	0xbe14b8ab	-0.1452357
24	0x3d8107bc	0.06300303
25	0x3d838f85	0.064238586
26	0xbdee1224	-0.11624554
27	0xbd9c68d7	-0.07637184
28	0xbe3c626c	-0.1839692
29	0xbe2e4502	-0.17018512
30	0x3cd39227	0.025826527
31	0x3c9459f9	0.018109309
32	0xbd8b6757	-0.0680682
33	0x3e9ab5ce	0.3021683
34	0xbe15ba8d	-0.14621945
35	0xbe239b5e	-0.15977237
36	0xbd79e0a4	-0.06100525
37	0xbd500c4a	-0.05079297
38	0xbe5d1817	-0.21591221
39	0xbe68b47f	-0.22725104
40	0x3ea2cf31	0.317987
41	0xbe6e26f9	-0.23257054
42	0xbda16c4e	-0.078819856
43	0x3c3c8b15	0.011507769
44	0x3b96f0cc	0.004606342
45	0x3d0a17b5	0.033714015
46	0x3cbfe690	0.02342537
47	0x3e30407e	0.17212102
48	0x3e10d3bc	0.1414327
49	0xbc805b1e	-0.015668448
50	0xbe88d8a3	-0.2672778
51	0x3d8bef0c	0.06832704
52	0x3d535e8b	0.051603835
53	0xbdaaf9e4	-0.08348444
54	0xbe1dee2d	-0.15422888
55	0xbc74c481	-0.014939428
56	0xbdcdbb9c	-0.10045549
57	0xbcf7cc26	-0.030248713
58	0x3dd841ae	0.105594024
59	0x3e42b9df	0.19016217
60	0x3d480618	0.048833936
61	0x3e1c5c08	0.15269482
62	0xbbac1f0c	-0.0052527245
63	0xbb8871f7	-0.0041639763
64	0x3e716678	0.23574245
65	0x3deb10ff	0.11477851
66	0xbb23fa99	-0.0025021194
67	0xbe576c2e	-0.21037361
68	0x3ee5731e	0.4481439
69	0xbe10ef96	-0.14153895
70	0x3dee0f48	0.116240084
71	0xbde6942b	-0.112587295
72	0x3d904bf0	0.07045734
73	0xbd9c5023	-0.07632472
74	0x3c405626	0.011739289
75	0xbe79a1de	-0.24378154
76	0xbc103ae7	-0.008803106
77	0x3cb3461a	0.021884013
78	0x3d9a6179	0.07538123
79	0xbe62bca9	-0.2214228
80	0x3e26fc67	0.16307221
81	0x3ccfe4fa	0.02537774
82	0xbdbc75e5	-0.09202174
83	0x3c970487	0.018434776
84	0xbd8aed53	-0.06783547
85	0x3cf38016	0.029724162
86	0xbe6da1c2	-0.23206237
87	0x3e3cc7d3	0.18435602
88	0xbdbc410b	-0.091920935
89	0xbbb1cd99	-0.0054261205
90	0x3de07075	0.109589495
91	0xbd0607bd	-0.032722224
92	0x3d70f6b1	0.058829013
93	0x3e58833c	0.21143812
94	0xbebd054b	-0.369181
95	0x3eab639c	0.33474433
96	0x3cb6ddee	0.022322621
97	0x3e15287a	0.14566222
98	0xbce88feb	-0.028388938
99	0x3e3920ce	0.1807892
100	0xbe50333f	-0.20332049
101	0xbdb4a3f4	-0.08820334
102	0xbdeaa8a8	-0.1145795
103	0x3c525ab4	0.012839008
104	0xbc95ca4d	-0.018284941
105	0xbdd83a7c	-0.1055803
106	0x3d9a5135	0.0753502
107	0xbe2a5788	-0.16634953
108	0xbd03d4bd	-0.032185305
109	0x3e7e4c3d	0.2483377
110	0xbd05daaa	-0.032679237
111	0xbda57fb3	-0.08080997
112	0xbcbcacac	-0.023031555
113	0xbdde8da0	-0.108668566
114	0x3a117eda	0.00055502134
115	0xbced0ba5	-0.028936217
116	0xbe09e9c5	-0.13468082
117	0xbd90f2c8	-0.07077557
118	0x3d5b2a82	0.053507335
119	0xbdab97f4	-0.08378592
120	0xbdfac92c	-0.12245402
121	0xbeb905e0	-0.36137295
122	0x3cdc47d6	0.026889723
123	0x3c7fc0ff	0.015609979
124	0x3d053cc4	0.032528654
125	0x3e8a0142	0.26954085
126	0x3c3138ca	0.010816762
127	0xbe840668	-0.25786138
128	0xbca71133	-0.020393943
129	0xbe75938e	-0.23982069
130	0x3e843fea	0.25830013
131	0xbe9d337b	-0.3070334
132	0xbe87b38d	-0.26504174
133	0xbcc958ad	-0.024578417
134	0xbe04d074	-0.12970144
135	0x3ef40464	0.476596
136	0xbcbbefcf	-0.022941498
137	0xbe2cb9ae	-0.16867706
138	0x3d98bfe7	0.074584775
139	0x3e040d2a	0.12895647
140	0xbe0930ad	-0.13397475
141	0x3c9c179b	0.019054225
142	0x3cce8ff9	0.025215136
143	0xbcb65453	-0.022257006
144	0xbdd32d40	-0.10311365
145	0xbdaeffcc	-0.08544883
146	0xbe362600	-0.17787933
147	0x3daab440	0.08335161
148	0xbd3becf7	-0.045880284
149	0xbdb5c793	-0.088759564
150	0xbe73fc72	-0.23826769
151	0x3bafd855	0.005366365
152	0x3d482599	0.04886398
153	0xbcf3656d	-0.02971145
154	0x3e35f084	0.1776753
155	0x3e64037a	0.22266951
156	0xbe09a3f0	-0.13441443
157	0xbca3fec3	-0.02001894
158	0x3c93a58b	0.018023273
159	0xbd700ac1	-0.058604006
160	0xbdb50962	-0.0883968
161	0xbe59072f	-0.21194147
162	0xbd3a1c6c	-0.04543726
163	0xbe40b7d3	-0.18820123
164	0x3ce57aaf	0.028012602
165	0x3d39f208	0.045396835
166	0x3e2e242f	0.1700599
167	0xbdd19a0f	-0.102344625
168	0xbe18f502	-0.14937213
169	0x3d8a991d	0.06767485
170	0xbe960cf9	-0.29306772
171	0xbd8fd7d0	-0.07023585
172	0xbe84acc4	-0.2591306
173	0xbe654911	-0.22391154
174	0x3db90b5b	0.09035369
175	0xbdf7c087	-0.120972686
176	0xbea4b487	-0.3216898
177	0xbccd822e	-0.025086489
178	0xbe9d86d8	-0.3076694
179	0xbd767109	-0.060166392
180	0x3cb80a9c	0.022465996
181	0xbea0a887	-0.31378576
182	0xbc0086d1	-0.007844643
183	0xbda2c74f	-0.07948171
184	0xbe2f7335	-0.17133792
185	0xbe04b58b	-0.12959878
186	0xbd96f533	-0.07370987
187	0x3c042ffb	0.00806808
188	0xbe7a7dd5	-0.24462064
189	0x3c4c2dea	0.012462119
190	0xbde6cb8f	-0.112692945
191	0x3d193e0c	0.037412688
192	0xbeb7cd7f	-0.3589897
193	0xbea8644b	-0.32889017
194	0xbdd0843d	-0.101814725
195	0xbea0f64a	-0.31437904
196	0xbe3b9930	-0.18320155
197	0x3d7eb0d7	0.062180366
198	0xbe86dc97	-0.26340172
199	0xbd15291e	-0.036416166
200	0xbd6f3725	-0.0584022
201	0xbe270947	-0.16312133
202	0x3e463d18	0.19359243
203	0x3b9ca20b	0.004780059
204	0xbe271299	-0.16315688
205	0x3f1493fc	0.58038306
206	0xbe625920	-0.22104311
207	0xbe240b67	-0.16019975
208	0xbdf9f67a	-0.12205215
209	0xbd69477b	-0.056952935
210	0x3e24a145	0.16077144
211	0xbe4a9285	-0.19782455
212	0x3da9cdbf	0.08291196
213	0xbe8cfae2	-0.27535158
214	0x3e971f35	0.29515997
215	0xbe033677	-0.12813745
216	0xbdadfb9b	-0.084952556
217	0xbe8d52c3	-0.27602205
218	0xbe1fe63c	-0.15615171
219	0x3da79b02	0.08183862
220	0xbca7f9ca	-0.02050485
221	0xbd39ce01	-0.045362476
222	0xbdc199e5	-0.09453181
223	0xbdbe4195	-0.092898525
224	0xbe992c4c	-0.29916608
225	0xbe08ca80	-0.13358498
226	0x3ecaa89d	0.39581767
227	0x3cd8aa9a	0.026448537
228	0xbd97754a	-0.07395418
229	0x3e4e6ee3	0.20159487
230	0xbdc2ecee	-0.09517847
231	0x3d1ea2f3	0.03872962
232	0x3d891380	0.066931725
233	0xbdf61c3d	-0.12017105
234	0xbcd98b39	-0.026555644
235	0x3e6064bb	0.21913426
236	0xbe3db102	-0.18524554
237	0xbdcce69f	-0.10004925
238	0xbc88f7d5	-0.016719738
239	0x3d8aad17	0.067712955
240	0xbd3510d8	-0.044205517
241	0x3d128577	0.035771813
242	0x3e86338d	0.26211205
243	0xbdd16ceb	-0.102258526
244	0xbdff20ea	-0.1245745
245	0x3c78c849	0.01518447
246	0x3d74feef	0.059813436
247	0x3d35cf0b	0.044386905
248	0x3b4eb1d0	0.003153909
249	0x3c8093af	0.015695421
250	0xbd1234b2	-0.035694785
251	0xbe192636	-0.14955983
252	0x3dbc5b1a	0.09197064
253	0xbd35bc89	-0.044369254
254	0xbc292dcc	-0.01032586
255	0xbd97ca54	-0.07411638
