test/models/squeezenet1.0_nhwc/weights/fire8_e1x1_kernel.npy (npy, 65616 bytes, 1 tensors)

array f4 [1, 1, 64, 256]
0.038742065 0.04482045 -0.13807103 0.09424732 -0.16771871 0.076254904 0.083648905 -0.15150394
-0.018968433 -0.1573156 0.081019506 -0.020603493 0.009018978 -0.04167352 -0.33576787 -0.15188433
0.0904162 -0.17303015 0.08135257 -0.08460749 0.2701285 -0.04859715 -0.08178822 -0.06625535
-0.11734106 -0.047895152 0.13202064 -0.10881145 -0.073483296 0.0015461263 0.016322551 0.16875336
0.037448958 -0.14385162 -0.053121712 -0.043078844 -0.003304073 -0.21366335 -0.085271925 0.07156396
-0.046560895 0.2930493 -0.115919575 -0.062052038 0.12927553 0.0011629598 -0.065022364 -0.1628301
-0.13315655 0.006585951 0.06317427 -0.22588243 -0.082229234 0.0046218326 0.06510809 -0.07339514
0.11932586 -0.1837275 0.0053930357 0.047698203 -0.084878005 -0.052509077 -0.068102635 -0.16868362
0.3221325 -0.061065402 -0.18769483 -0.022702245 0.17481123 -0.15803301 -0.1557693 0.08054079
0.0064212247 0.0771033 0.08451313 0.057665613 -0.005950714 0.044878673 -0.09142183 0.08640428
0.08002082 0.030255893 -0.096936345 -0.1300865 -0.101208895 -0.09924448 -0.1121898 -0.08725891
-0.24197425 0.196899 0.16660215 0.044567246 -0.12991469 0.11367417 -0.15351722 0.20376036
0.120140314 0.16494583 0.14727819 0.05800044 -0.16597067 -0.0976256 -0.09416317 -0.062704936
-0.07292339 0.120711975 0.089794464 0.13607447 0.05349917 0.20568408 -0.095409855 -0.04159795
-0.040408198 -0.010110015 0.047567435 0.013601152 -0.12174924 0.020872572 -0.041019503 0.049238607
-0.16895254 -0.03582767 -0.03826263 -0.114661835 -0.050368953 0.0665479 0.034112323 -0.027758555
0.06426193 -0.12898478 -0.06864066 -0.097451575 -0.019359073 -0.10464206 0.05519756 0.0041362424
0.23345278 -0.03697011 0.010621431 -0.08614076 -0.011612068 0.28113508 -0.17776066 0.05295294
-0.048122242 -0.039583992 -0.31584975 -0.29561803 0.01519115 -0.12788795 0.05153284 -0.124821104
0.0140579175 -0.14142752 -0.1332672 -0.05321083 -0.15899292 0.015109258 0.13970317 -0.09851274
0.145192 0.093677394 -0.21869065 -0.002601513 -0.09133451 -0.18531156 0.41962 -0.0029864977
-0.04016805 -0.023529127 0.03677248 0.3025919 -0.1147565 -0.05680379 -0.006252784 0.07539338
-0.16031249 0.056138486 0.0724894 0.0406665 -0.046826616 -0.014109789 0.030798329 0.058056865
0.14353119 -0.14503172 -0.04573883 -0.122195974 0.095456846 0.26321584 0.05634951 0.011207514
0.02904992 -0.1234531 -0.12781723 0.058006417 0.20607267 0.07357998 -0.043629523 -0.008687934
-0.060086578 -0.0057999743 0.12266651 0.07270299 -0.011218172 -0.036453277 0.07362182 -0.20400794
0.16845672 -0.08049989 -0.12622233 0.1061727 -0.16040336 0.205398 -0.25757673 0.15123616
-0.23908137 -0.24052346 0.04363045 -0.13942298 0.12173031 0.09258341 0.25229493 -0.14297898
-0.076849245 -0.05350711 0.098436475 -0.15882729 -0.06265502 -0.22346127 -0.098660484 -0.13333952
0.056407664 0.12792188 -0.16983849 0.107820064 -0.07315093 -0.024206158 0.4073059 -0.21437958
-0.090321615 -0.1975091 -0.017993964 0.12460245 -0.1011599 -0.13852291 -0.26577568 -0.065536015
0.12491763 0.09595115 -0.09200695 -0.093084596 -0.013133589 0.11886259 -0.1309277 0.02330992
00000000: 00b0 1e3d a695 373d 7e62 0dbe bd04 c13d
00000010: 74be 2bbe 882b 9c3d 1e50 ab3d d923 1bbe
00000020: b063 9bbc 5717 21be 8eed a53d a8c8 a8bc
00000030: 56c4 133c dab1 2abd c4e9 abbe 9187 1bbe
00000040: 212c b93d d12e 31be 2d9c a63d b146 adbd
00000050: 484e 8a3e ce0d 47bd 9580 a7bd e3b0 87bd
00000060: 8250 f0bd b52d 44bd 6b30 073e 8ad8 debd
00000070: 697e 96bd 64a7 ca3a dfb6 853c aecd 2c3e
00000080: 1464 193d d74d 13be 2796 59bd 7173 30bd
00000090: 2589 58bb 91ca 5abe 0ca3 aebd 2090 923d
000000a0: a3b6 3ebd 8f0a 963e 3e67 edbd 472a 7ebd
000000b0: ce60 043e 756e 983a 722a 85bd efbc 26be
000000c0: 315a 08be f6ce d73b 8361 813d b94d 67be
000000d0: cd67 a8bd be72 973b 6457 853d 3150 96bd
000000e0: 1e61 f43d 1023 3cbe 10b8 b03b 315f 433d
000000f0: 85d4 adbd c213 57bd 6579 8bbd 66bb 2cbe
00000100: 8dee a43e b71f 7abd 1333 40be 0ffa b9bc
00000110: b701 333e 68d3 21be fd81 1fbe 92f2 a43d
00000120: 2369 d23b 56e8 9d3d 3815 ad3d c732 6c3d
00000130: 35fe c2bb b3d2 373d 5e3b bbbd baf4 b03d
00000140: f5e1 a33d 35db f73c 9086 c6bd 6535 05be
00000150: 9c46 cfbd b140 cbbd c4c3 e5bd cdb4 b2bd
00000160: 19c8 77be e49f 493e c199 2a3e 258c 363d
00000170: 5b08 05be 01ce e83d 9e33 1dbe 8ea6 503e
00000180: 200c f63d 8fe7 283e 18d0 163e df91 6d3d
00000190: 37f4 29be eeef c7bd 9fd8 c0bd 726b 80bd
000001a0: dc58 95bd d737 f73d 29e6 b73d 1b57 0b3e
000001b0: f221 5b3d d99e 523e 3e66 c3bd 9d62 2abd
000001c0: 1183 25bd 7aa4 25bc 12d6 423d 5ed7 5e3c
000001d0: aa57 f9bd f5fc aa3c 1104 28bd 6cae 493d
000001e0: e501 2dbe 09c0 12bd 47b9 1cbd d3d3 eabd
000001f0: ad4f 4ebd 444a 883d 5db9 0b3d e965 e3bc
00000200: c29b 833d 9614 04be 7993 8cbd b194 c7bd
00000210: eb96 9ebc 944e d6bd d616 623d 5189 873b
00000220: 3f0e 6f3e f86d 17bd 8305 2e3c 916a b0bd
00000230: 8b40 3ebc f0f0 8f3e e406 36be 2fe5 583d
00000240: d41b 45bd d322 22bd 0fb7 a1be 3f5b 97be
00000250: 4de4 783c 0ff5 02be 1914 533d 35a2 ffbd
00000260: 2e53 663c 60d2 10be 3277 08be 99f3 59bd
00000270: 0acf 22be d28c 773c 590e 0f3e 0cc1 c9bd
00000280: 36ad 143e efd9 bf3d 71f0 5fbe 257e 2abb
00000290: 960d bbbd 50c2 3dbe 6fd8 d63e 1eb9 43bb
000002a0: 4187 24bd 28c0 c0bc bd9e 163d 53ed 9a3e
000002b0: 7505 ebbd 17ab 68bd 27e4 ccbb d867 9a3d
000002c0: f528 24be 78f1 653d 5375 943d ea91 263d
000002d0: 44cd 3fbd bf2c 67bc c74c fc3c 09cd 6d3d
000002e0: d7f9 123e 3283 14be a458 3bbd e241 fabd
000002f0: e17e c33d 3ac4 863e bece 663d b99f 373c
00000300: 19fa ed3c fbd4 fcbd 85e2 02be 2398 6d3d
00000310: b704 533e 1ab1 963d dfb4 32bd d657 0ebc
00000320: 581d 76bd b60d bebb 9438 fb3d 4ee5 943d
00000330: 6ccc 37bc 0850 15bd 09c7 963d 75e7 50be
00000340: eb7f 2c3e 20dd a4bd 6d40 01be 1371 d93d
00000350: c740 24be da53 523e 19e1 83be a7dd 1a3e
00000360: bfd1 74be c84b 76be d8b5 323d e6c4 0ebe
00000370: be4d f93d 5f9c bd3d cd2c 813e 1569 12be
00000380: 2363 9dbd 452a 5bbd 1099 c93d 9fa3 22be
00000390: 4651 80bd 08d3 64be 820e cabd 288a 08be
000003a0: b90b 673d f4fd 023e 24ea 2dbe c4d0 dc3d
000003b0: 28d0 95bd fe4b c6bc 668a d03e 5286 5bbe
000003c0: 8afa b8bd d33f 4abe 1468 93bc 922f ff3d
000003d0: ec2c cfbd f3d8 0dbe c013 88be bf37 86bd
000003e0: d0d4 ff3d 0982 c43d 246e bcbd 23a3 bebd
000003f0: 442e 57bc 3b6e f33d e911 06be 72f4 be3c
