test/models/squeezenet1.0_nhwc/weights/fire7_e3x3_kernel.npy (npy, 331856 bytes, 1 tensors)

array f4 [3, 3, 48, 192]
0.060553286 -0.0644398 0.012498453 0.20475394 -0.10505737 -0.0916531 -0.09021072 0.039561037
-0.10797229 -0.0062645124 0.046468224 -0.047311902 -0.16837418 -0.08679498 0.003076758 0.051338445
-0.08430914 0.026628371 -0.08925556 -0.10989137 0.0642551 0.10062413 -0.022845333 0.0034206426
-0.07840555 -0.053286925 -0.013750854 -0.08398179 -0.09846893 0.11026932 -0.013451727 0.09901883
-0.06372265 -0.10830895 -0.0032860541 0.060856182 -0.13787192 -0.08829834 0.032301538 -0.007828509
0.01325001 0.08297847 -0.12753591 0.0032301985 -0.15890127 0.0005444639 -0.030433973 -0.06723396
0.03570067 -0.16954194 0.031860374 0.021608412 0.015752135 0.0031300844 0.04031413 0.059558354
-0.16868447 0.03442456 0.017924542 -0.02377414 -0.100331135 0.02458378 0.02268239 0.08251706
0.022205537 0.08024042 -0.17688605 -0.06653779 -0.032464635 -0.06896906 0.02115245 0.06265896
-0.074328296 -0.028583879 0.007818009 -0.025535908 0.052455515 -0.03701177 0.04877752 -0.05356936
-0.12718622 0.018134112 -0.021868687 -0.04841015 0.008626737 0.10757262 -0.059944704 -0.16671664
-0.05941236 -0.08223818 -0.21164289 0.07468263 -0.09456979 0.20624381 -0.03282305 -0.081227265
0.059426043 0.030794822 -0.05625789 -0.010662298 0.012559585 0.0615217 -0.07734115 -0.1253484
0.16182314 0.22547585 0.020415224 0.049669996 -0.022116771 0.03318958 0.014966375 -0.0020414968
0.051873613 0.11597829 -0.20441279 -0.015023369 -0.089063846 -0.03690299 -0.039626677 -0.14735302
-0.08268725 -0.10293195 -0.0076834736 -0.03912671 -0.012716975 -0.057831295 -0.060132235 -0.099317044
-0.1036479 0.073214605 0.0048315558 -0.046349872 0.04055999 -0.14344712 -0.02932418 0.05708189
0.057014603 -0.12959827 -0.12350973 0.042978045 -0.052535735 -0.08648611 0.0054379515 0.035500847
-0.13952874 0.11315588 -0.03116019 -0.030868959 -0.11367637 -0.10887478 0.09279416 0.053790182
-0.0013992187 -0.017144382 -0.056387823 -0.06409008 0.016413787 0.044433344 -0.0071069016 -0.102221034
0.011572159 -0.044672877 0.034592442 0.021704787 -0.009905141 0.09850586 -0.070652254 -0.096475564
-0.04094147 -0.12643652 0.07021679 0.019651104 0.07604157 -0.042291366 0.119373016 0.122050494
0.15435308 -0.038655028 -0.02236052 -0.07722336 -0.08274752 0.13432775 0.12205402 -0.010985409
0.0359863 0.07701783 -0.040032968 0.02077072 0.020320006 0.04076465 -0.014865293 -0.03730733
-0.010766162 -0.12097923 0.008428833 0.10420356 0.028770171 0.08574993 0.13004611 0.08988778
-0.011010569 -0.10503436 -0.08440972 -0.08265469 0.08347493 -0.061675563 0.004955492 -0.16424933
0.19505489 0.098075174 0.07244341 -0.013836448 0.0048799836 -0.07475863 -0.040093835 -0.0072551426
0.08891283 0.11373368 0.031546846 -0.010826168 -0.010946784 0.031393513 0.016167698 0.007906224
-0.0097888205 0.038590435 0.08927341 0.027878623 -0.01286153 0.021216301 0.070113875 -0.0001887713
0.08666857 -0.07705208 -0.062743574 -0.0055424855 -0.05488919 -0.09969624 0.06661811 -0.07225649
-0.090783805 -0.046858817 -0.06517634 -0.12966698 -0.035563666 0.08858347 0.05917356 -0.1216952
-0.018180108 -0.05370004 0.031758893 -0.11511269 0.09558219 0.01415707 -0.081136025 -0.006503642
00000000: b906 783d 04f9 83bd 50c6 4c3c 04ab 513e
00000010: 5228 d7bd 9fb4 bbbd 66c0 b8bd c10a 223d
00000020: 9320 ddbd 8a46 cdbb 7755 3e3d 20ca 41bd
00000030: 486a 2cbe 91c1 b1bd 6fa3 493b 4348 523d
00000040: 45aa acbd be23 da3c 9ecb b6bd ba0e e1bd
00000050: 2e98 833d 0614 ce3d 2326 bbbc dc2c 603b
00000060: 1793 a0bd 6443 5abd 434b 61bc a5fe abbd
00000070: 14aa c9bd e2d4 e13d a264 5cbc 62ca ca3d
00000080: 0581 82bd 15d1 ddbd d75a 57bb 5544 793d
00000090: 4c2e 0dbe c3d5 b4bd 9e4e 043d 2643 00bc
000000a0: 9216 593c 9ef0 a93d c698 02be bdb1 533b
000000b0: 04b7 22be 5bba 0e3a ab50 f9bc f5b1 89bd
000000c0: de3a 123d 679c 2dbe 0680 023d 2004 b13c
000000d0: 9f0a 813c 1a22 4d3b 6e20 253d 76f3 733d
000000e0: 9fbb 2cbe c400 0d3d 7dd6 923c fcc1 c2bc
000000f0: 697a cdbd ec63 c93c 6bd0 b93c b4fe a83d
00000100: 63e8 b53c 1755 a43d 9e21 35be f744 88bd
00000110: a3f9 04bd a73f 8dbd e747 ad3c 5753 803d
00000120: 6f39 98bd bd28 eabc 1b17 003c ae30 d1bc
00000130: 98db 563d a799 17bd f0ca 473d 8c6b 5bbd
00000140: 1b3d 02be fd8d 943c f625 b3bc b949 46bd
00000150: 2857 0d3c 094f dc3d 9488 75bd c4b7 2abe
00000160: 605a 73bd 7e6c a8bd eab8 58be 35f3 983d
00000170: cead c1bd 9431 533e 7671 06bd 7b5a a6bd
00000180: b968 733d 6c45 fc3c ac6e 66bd ebb0 2ebc
00000190: b8c6 4d3c 2efe 7b3d 0965 9ebd 555b 00be
000001a0: f7b4 253e 24e3 663e d43d a73c c472 4b3d
000001b0: 3b2e b5bc ccf1 073d 8735 753c a2ca 05bb
000001c0: 6d79 543d 0786 ed3d 9651 51be 9424 76bc
000001d0: 1b67 b6bd 9727 17bd 954f 22bd b6e3 16be
000001e0: ef57 a9bd fccd d2bd a6c5 fbbb 5443 20bd
000001f0: dc5a 50bc 82e0 6cbd 384d 76bd bc66 cbbd
00000200: 5a45 d4bd 8af1 953d 0752 9e3b 5dd9 3dbd
00000210: 3b22 263d cde3 12be 4339 f0bc b3ce 693d
00000220: 2588 693d 69b5 04be abf2 fcbd bf09 303d
00000230: b62f 57bd a11f b1bd d830 b23b 5669 113d
00000240: 9fe0 0ebe 45be e73d a843 ffbc e6e0 fcbc
00000250: 28cf e8bd bef9 debd dd0a be3d 1853 5c3d
00000260: fd65 b7ba 6072 8cbc ebf6 66bd a941 83bd
00000270: 3576 863c bdff 353d 03e1 e8bb 4359 d1bd
00000280: 2799 3d3c e8fa 36bd ceb0 0d3d 3dce b13c
00000290: 2c49 22bc 71bd c93d 21b2 90bd fb94 c5bd
000002a0: 3eb2 27bd 9378 01be d2cd 8f3d 5afb a03c
000002b0: afbb 9b3d b639 2dbd d779 f43d 9cf5 f93d
000002c0: bc0e 1e3e bc54 1ebd 692d b7bc 4827 9ebd
000002d0: 8877 a9bd 378d 093e 75f7 f93d 25fc 33bc
000002e0: 5f66 133d 86bb 9d3d 9cf9 23bd 5b27 aa3c
000002f0: 2476 a63c d5f8 263d 8f8d 73bc 92cf 18bd
00000300: 8e64 30bc f5c3 f7bd 1719 0a3c ad68 d53d
00000310: 6caf eb3c a99d af3d cf2a 053e 1617 b83d
00000320: ac65 34bc 411c d7bd 01df acbd dd46 a9bd
00000330: e7f4 aa3d 849f 7cbd ae61 a23b fa30 28be
00000340: 78bc 473e a3db c83d 365d 943d 45b2 62bc
00000350: 45e8 9f3b 0d1b 99bd 6f39 24bd 8cbc edbb
00000360: ee17 b63d 34ed e83d 4437 013d 3d60 31bc
00000370: 245a 33bc 7c96 003d 1f72 843c 1b89 013c
00000380: 4a61 20bc 0111 1e3d fad4 b63d b661 e43c
00000390: 2bb9 52bc cfcd ad3c dd97 8f3d e9f0 45b9
000003a0: 4b7f b13d 7bcd 9dbd b47f 80bd bd9d b5bb
000003b0: 7dd3 60bd 8b2d ccbd 136f 883d 36fb 93bd
000003c0: dcec b9bd 08ef 3fbd 2c7b 85bd 6cc7 04be
000003d0: 35ab 11bd 406b b53d fa5f 723d 553b f9bd
000003e0: 73ee 94bc 93f4 5bbd 9d15 023d 34c0 ebbd
000003f0: 98c0 c33d 0ef3 673c a52a a6bd 811c d5bb
