test/models/squeezenet1.0_nhwc/weights/fire3_squeeze_kernel.npy (npy, 8272 bytes, 1 tensors)

array f4 [1, 1, 128, 16]
0	0x3e9c3a89	0.3051341
1	0x3c81bdc5	0.01583756
2	0xbdbaeba0	-0.09126973
3	0x3b8d2b58	0.0043081455
4	0x3d49143c	0.049091563
5	0x3e839dc7	0.25706312
6	0x3d2e5a04	0.042566314
7	0x3e17cba5	0.14823778
8	0x3d1f9f27	0.03897014
9	0xbe8b00ce	-0.2714905
10	0x3d73b653	0.05950005
11	0xbda7cfd6	-0.081939384
12	0x3e242204	0.16028601
13	0x3e484aa8	0.19559729
14	0xbdaf790f	-0.08568012
15	0xbd81a5e6	-0.06330471
16	0x3cb59eeb	0.022170505
17	0xbe0501ca	-0.12988964
18	0xbca6dff3	-0.02037046
19	0x3e874596	0.26420277
20	0xbdfd9063	-0.12381055
21	0xbea1c349	-0.31594303
22	0x3e551c9a	0.20811692
23	0x3bc5d3d4	0.006037215
24	0xbdcbb163	-0.09945943
25	0x3dbed821	0.09318567
26	0x3e27d9d8	0.16391695
27	0xbdb12f78	-0.08651632
28	0x3e9d5f1c	0.30736625
29	0x3dfbb3fc	0.12290189
30	0x3e22681a	0.15860024
31	0x3d9eddbe	0.07757138
32	0xbdc68e4a	-0.09695108
33	0x3e930ae0	0.28719234
34	0xbc830c23	-0.015996998
35	0x3e3598f6	0.17734131
36	0x3e597df5	0.21239455
37	0x3dda8ea2	0.10671736
38	0x3e122490	0.1427176
39	0xbc44aab7	-0.012003592
40	0x3cf69b4a	0.030103344
41	0x3d1b3248	0.03788975
42	0x3eb5ade4	0.3548423
43	0x3eded6f1	0.43523362
44	0xbd3c59c1	-0.045984033
45	0xbe49b3e8	-0.19697535
46	0x3e3f96b7	0.18709837
47	0x3dc407b5	0.095717825
48	0x3b96eb42	0.0046056816
49	0x3d7c997c	0.06166981
50	0xbc1d85f5	-0.009614457
51	0xbe134b6c	-0.1438424
52	0x3db1574d	0.086592294
53	0x3e24709a	0.16058579
54	0x3e609b34	0.21934205
55	0x3e02d44c	0.12776297
56	0xbeac8f1f	-0.33702943
57	0xbd4f7fb2	-0.05065889
58	0xbd812d4d	-0.063074686
59	0x3c7ac0f3	0.015304792
60	0x3d66175c	0.05617462
61	0x3cb28473	0.021791672
62	0x3e0733de	0.1320338
63	0xbd64b7c5	-0.05583932
64	0xbd8a1071	-0.06741417
65	0xbc96341e	-0.018335398
66	0x3d1ff82a	0.039055027
67	0x3da73475	0.08164302
68	0xbb94e91d	-0.004544391
69	0x3d483bed	0.048885275
70	0x3d2f5512	0.04280574
71	0x3d967f4b	0.07348498
72	0x3d9257e9	0.07145674
73	0xbe6d1990	-0.23154283
74	0x3dbc6045	0.091980495
75	0xbd8474a7	-0.06467562
76	0x3d47d813	0.04879005
77	0xbec11f51	-0.37719205
78	0xbddd621e	-0.1080973
79	0x3cc7060b	0.024294874
80	0x3d465617	0.048421945
81	0xbd33ed1d	-0.0439273
82	0x3e3ac176	0.18237862
83	0xbe2215a9	-0.15828575
84	0xbdc76a19	-0.097370334
85	0x3ce9540b	0.028482458
86	0x3c8207d7	0.015872879
87	0xbe212cb5	-0.1573971
88	0x3da2b07a	0.079438165
89	0x3e7a1ede	0.24425837
90	0x3e12d6dd	0.14339776
91	0x3d207e6d	0.03918307
92	0x3c6974e9	0.014249065
93	0xbe2b56d2	-0.16732338
94	0x3d50b8f2	0.050957628
95	0x3ee00aec	0.43758333
96	0xbe3eec10	-0.18644738
97	0x3c09088e	0.008363856
98	0x3e1ac8ef	0.15115713
99	0xbdac4501	-0.08411599
100	0xbc6af8b5	-0.014341523
101	0xbe206cdc	-0.15666527
102	0x3e6291a6	0.22125873
103	0xbd0c2896	-0.034218393
104	0xbc207815	-0.009794255
105	0xbe09b0a7	-0.13446294
106	0x3d821d44	0.06353238
107	0xbd8956c0	-0.067059994
108	0xbdeedd72	-0.11663331
109	0xbe4348c0	-0.1907072
110	0xbbb0b0ff	-0.0053921933
111	0x3c680138	0.014160447
112	0x3d8fbb64	0.07018164
113	0xbe9a2793	-0.30108318
114	0xbdb07795	-0.086165585
115	0xbe8d31f2	-0.27577168
116	0x3de53339	0.111914106
117	0xbd143caa	-0.036190666
118	0xb9d0bcd1	-0.0003981353
119	0x3e49de1b	0.19713633
120	0x3c500d34	0.01269846
121	0x3d09da55	0.033655483
122	0x3e834dc4	0.25645268
123	0x3e8c902b	0.2745374
124	0x3de10a22	0.10988261
125	0x3e011261	0.12604667
126	0x3cc20242	0.023682717
127	0xbd8730d0	-0.06601107
128	0x3c505746	0.01271612
129	0x3d94c191	0.07263482
130	0xbe9b8da0	-0.3038149
131	0x3d3bc6e3	0.04584397
132	0x3df09518	0.117471874
133	0x3b934aa6	0.004494983
134	0x3e12f085	0.14349563
135	0x3d91f0c3	0.07126
136	0xbc8b1247	-0.016976489
137	0xbe3b53b7	-0.18293653
138	0xbde303cb	-0.11084708
139	0xbe0a001d	-0.13476606
140	0x3d78cc48	0.060741693
141	0x3d0d4219	0.034486864
142	0x3d07fd36	0.033200465
143	0x3ee752b0	0.45180273
144	0xbce7ad8f	-0.028281001
145	0xbec5462a	-0.38530093
146	0xbe00e7c4	-0.12588412
147	0x3e3fdd42	0.18736747
148	0xbe2204c9	-0.15822138
149	0x3cb19c56	0.021680992
150	0xbe9c4ac5	-0.30525795
151	0xbe1d21e2	-0.15344957
152	0xbd788db8	-0.06068203
153	0xbdd82728	-0.105543435
154	0x3c07ad6f	0.008281096
155	0xbdf41cb1	-0.11919535
156	0xbd2f458f	-0.042790946
157	0xbec79a92	-0.38985115
158	0xbd21aa6f	-0.03946918
159	0xbe4103bd	-0.18849082
160	0x3e296155	0.16541035
161	0xbe00b483	-0.1256886
162	0x3deb1399	0.11478347
163	0x3e9039b9	0.2816904
164	0xbe2765c6	-0.16347417
165	0x3d850b9e	0.064963564
166	0xbdefee88	-0.11715418
167	0xbe5cc416	-0.21559176
168	0x3e027764	0.12740856
169	0xbe13c36d	-0.14430018
170	0x3e270382	0.16309932
171	0xbdc5de92	-0.096615925
172	0x3d5db683	0.054129135
173	0xbe65709e	-0.22406241
174	0xbe27760e	-0.16353628
175	0x3db8cf9d	0.09023974
176	0x3d578007	0.05261233
177	0xbd894be3	-0.06703927
178	0xbd78ac3d	-0.060711134
179	0x3d693cc8	0.05694273
180	0xbd858f68	-0.06521493
181	0x3e0ca718	0.13735616
182	0xbc0dab0b	-0.008646737
183	0x3d261311	0.040545527
184	0x3ea35d50	0.3190713
185	0xbe05e975	-0.13077338
186	0x3e5360b0	0.20642352
187	0xbe1261b2	-0.1429508
188	0xbdd4af89	-0.10385043
189	0x3dea166d	0.11430059
190	0xbe3c93d7	-0.18415771
191	0x3cc0ed4b	0.02355065
192	0x3d1bd05b	0.0380405
193	0x3d1baf2b	0.03800885
194	0xbbaeb98d	-0.005332178
195	0xbd0e483e	-0.034736864
196	0x3d1434fa	0.036183335
197	0x3d240d22	0.040051587
198	0x3cecb57d	0.028895134
199	0x3da8e09d	0.082459666
200	0x3eb951f5	0.3619534
201	0xbcf707ce	-0.030155089
202	0x3d533857	0.0515674
203	0xbe0e4a60	-0.1389556
204	0xbe214b90	-0.15751481
205	0xbe248861	-0.1606765
206	0x3f0ca884	0.54944634
207	0xbd21a2ee	-0.039462022
208	0xbd24361a	-0.040090658
209	0xbe504cdc	-0.2034182
210	0x3da3397e	0.0796995
211	0xbda12f91	-0.07870401
212	0x3ef87f37	0.48534557
213	0xbc9e9bd2	-0.01936141
214	0xbd8d3a43	-0.06895878
215	0xbe131abf	-0.14365672
216	0xbc46a374	-0.012123931
217	0x3d7f1356	0.0622743
218	0xbdf07276	-0.11740582
219	0xbe5cc26d	-0.21558543
220	0x3d5cf1cc	0.053941533
221	0xbc6f43da	-0.014603579
222	0xbc73abce	-0.014872504
223	0x3c184219	0.009293103
224	0xbb917d62	-0.0044399956
225	0xbd9598e9	-0.07304556
226	0xbd8dd25f	-0.06924891
227	0x3d584d0a	0.052807845
228	0x3e916ed9	0.28404883
229	0xbe020a0e	-0.12699148
230	0xbdcc678c	-0.099806875
231	0x3dee7d71	0.1164502
232	0xbd4edf13	-0.05050571
233	0xbce39f49	-0.027785914
234	0x3d6983ec	0.057010576
235	0xbc820624	-0.015872069
236	0x3dda23a7	0.106513314
237	0x3b85e913	0.0040866225
238	0xbd8adb62	-0.06780125
239	0x3d4779e4	0.04870023
240	0xbe44e35f	-0.1922736
241	0xbd53e4da	-0.05173192
242	0x3d207b97	0.039180364
243	0xbda0fabe	-0.07860325
244	0xbbe03eb7	-0.0068434137
245	0x3e9478c0	0.28998375
246	0xbd0cc6cf	-0.034369286
247	0xbe5a8a2e	-0.21341774
248	0x3e02911d	0.12750669
249	0x3f2f468d	0.68467027
250	0xbc956890	-0.018238336
251	0x3d0a8239	0.033815596
252	0x3ef1463b	0.47123894
253	0xbe2dbdf2	-0.1696699
254	0xbe9624b1	-0.29324868
255	0x3c435b63	0.011923644
