test/models/squeezenet1.0_nhwc/weights/fire8_squeeze_kernel.npy (npy, 98384 bytes, 1 tensors)

array f4 [1, 1, 384, 64]
-0.06644503 0.046100784 0.23316395 0.001235434 0.05822282 -0.054705646 0.074274145 -0.035034087
0.05166194 -0.030965317 0.17567453 0.12782112 -0.19323581 0.06625743 -0.044702925 0.043071877
0.021104401 0.17345643 -0.04046578 -0.07046915 0.27304995 -0.053973034 -0.13146256 -0.29176506
0.0059209485 -0.0005404278 0.0019005149 -0.007911373 0.041883558 0.13857701 -0.11940851 0.12843028
0.00498221 0.19662952 0.08620745 0.03692642 -0.055502024 0.015695192 0.15205425 0.08204712
-0.007120934 -0.054624293 0.123365104 -0.04173287 0.024675602 -0.20906621 0.0679352 0.04128789
0.049297366 0.03909288 0.061481487 0.1592569 -0.027260061 -0.2622224 0.16405194 0.060866863
0.17688684 0.057018526 -0.013122491 0.17884724 2.2981847e-05 -0.00021896657 -0.07828234 -0.1000724
0.0142314695 -0.07429874 -0.06788637 0.06621133 -0.046109103 -0.089710966 0.24912404 0.12780859
-0.04006826 -0.253015 0.1844371 -0.047401737 -0.098979354 -0.029521383 0.03199928 0.067891106
0.08969646 0.114305325 -0.11857852 0.0054141395 0.09393354 -0.14469653 0.088332355 0.08974609
-0.046340134 0.008375889 -0.08556073 -0.11703271 -0.028633766 -0.21025868 0.04549 0.029165128
-0.15551315 -0.17104645 0.010461728 -0.00440475 -0.04202097 -0.09214005 0.10106473 -0.046305
0.11802538 0.17250322 0.11367628 -0.011144179 -0.2202553 0.004460079 -0.07014216 0.27839026
0.04946787 -0.10723278 -0.13572037 0.11684286 0.04676149 0.081828885 -0.011142825 0.05944617
0.27276203 0.099391006 0.00444169 0.16273782 -0.043686524 -0.017127167 -0.08252575 0.024744445
-0.1175163 -0.058414552 0.08515452 -0.044714287 0.033641968 0.26725894 -0.15534985 0.06490121
0.05558885 -0.012495156 -0.12880875 0.04418465 0.25625378 -0.10454596 0.072696075 0.0480565
0.15953855 0.06708751 0.10727527 -0.003154634 0.0097616045 -0.17553788 0.023113443 -0.070322104
0.24559397 -0.29883608 0.056665316 0.004778142 0.0067345337 -0.020482967 0.2574766 0.0050989734
0.012610093 0.111117736 -0.0855671 0.036934726 0.013014063 -0.025973465 -0.11807752 -0.12716325
-0.10559282 0.0473226 -0.15669511 -0.0010159913 -0.14058469 -0.17017055 0.019359313 0.022437628
0.17383781 -0.018419981 0.07289389 0.078394786 0.027906973 0.25973397 0.062944606 -0.08256921
0.10784633 0.13581601 -0.14196616 0.1498291 -0.12241091 0.063998505 0.036498096 -0.27367082
-0.15419807 0.074959554 -0.23201507 0.010828286 0.035170242 0.022952724 0.18302973 0.06282578
0.0080402875 0.0890172 0.11348982 -0.048671417 0.06252792 0.063596345 0.013352963 0.02497251
0.2499681 -0.09625914 -0.15103556 0.018376056 0.14502403 0.114471026 0.013251805 -0.084211916
0.023499783 -0.079497986 0.15372908 -0.15596466 0.051301204 -0.10386683 -0.06322449 -0.039180063
-0.14013909 -0.29604858 0.060612082 0.015995799 -0.11588772 0.019258266 -0.14416745 0.024605358
-0.08936639 -0.13264361 -0.055736214 -0.18661498 -0.19340155 0.008963132 0.12647685 0.25489956
-0.18062735 -0.12656862 -0.118761994 0.0681839 -0.09468887 -0.13403612 -0.097202465 0.08268068
-0.014275479 -0.076233275 -0.11485385 -0.030728651 -0.020891512 -0.1614227 -0.026078451 -0.15446033
00000000: 5514 88bd 2dd4 3c3d 88c2 6e3e 49ee a13a
00000010: 0d7b 6e3d 0713 60bd 0b1d 983d e77f 0fbd
00000020: 789b 533d faaa fdbc 06e4 333e 8ae3 023e
00000030: 9cdf 45be fab1 873d 6a1a 37bd 236c 303d
00000040: 23e3 ac3c 909e 313e 72bf 25bd 2152 90bd
00000050: 34cd 8b3e d412 5dbd 1f9e 06be 3b62 95be
00000060: 8404 c23b 7fab 0dba b31a f93a b49e 01bc
00000070: 188e 2b3d 22e7 0d3e 738c f4bd 3a83 033e
00000080: cf41 a33b 4059 493e 888d b03d 2840 173d
00000090: 1756 63bd 3493 803c 1cb4 1b3e 5208 a83d
000000a0: b956 e9bb b9bd 5fbd d8a6 fc3d 16f0 2abd
000000b0: 7d24 ca3c 7415 56be 9c21 8b3d 7e1d 293d
000000c0: 09ec 493d db1f 203d 03d4 7b3d 3e14 233e
000000d0: 7e50 dfbc 0442 86be 3bfd 273e 884f 793d
000000e0: d321 353e 428c 693d b7ff 56bc bb23 373e
000000f0: 24c9 c037 649a 65b9 7e52 a0bd c2f2 ccbd
00000100: 1c2b 693c f029 98bd 0208 8bbd ce99 873d
00000110: e6dc 3cbd 62ba b7bd 5f1a 7f3e 41e0 023e
00000120: 9e1e 24bd 2f8b 81be 14dd 3c3e 5328 42bd
00000130: b0b5 cabd d4d6 f1bc ad11 033d 7e0a 8b3d
00000140: c7b2 b73d e918 ea3d 4cd9 f2bd 1869 b13b
00000150: 3a60 c03d 542b 14be 98e7 b43d cccc b73d
00000160: 27cf 3dbd 063b 093c 773a afbd d8ae efbd
00000170: 5c91 eabc 0d4e 57be b953 3a3d b5eb ee3c
00000180: d73e 1fbe cd26 2fbe ab67 2b3c b955 90bb
00000190: 2e1e 2cbd ecb3 bcbd 06fb ce3d 50aa 3dbd
000001a0: 4ab7 f13d afa4 303e 1ccf e83d 1396 36bc
000001b0: 9b8a 61be db25 923b b1a6 8fbd 2b89 8e3e
000001c0: d29e 4a3d dc9c dbbd 48fa 0abe 4f4b ef3d
000001d0: fa88 3f3d e795 a73d 6590 36bc d47d 733d
000001e0: 77a7 8b3e 838d cb3d 998b 913b bea4 263e
000001f0: a4f0 32bd 464e 8cbc 4303 a9bd ddb4 ca3c
00000200: 63ac f0bd 1944 6fbd 7e65 ae3d 5426 37bd
00000210: 29cc 093d 2ad6 883e 0814 1fbe edea 843d
00000220: 22b1 633d 7cb8 4cbc 71e6 03be f7fa 343d
00000230: b233 833e 311c d6bd aee1 943d e4d6 443d
00000240: 135e 233e 2d65 893d 23b3 db3d fabd 4ebb
00000250: 23ef 1f3c 34c0 33be 6758 bd3c 0905 90bd
00000260: fc7c 7b3e 0b01 99be e419 683d f691 9c3b
00000270: 5dad dc3b e5cb a7bc f9d3 833e 4a15 a73b
00000280: 909a 4e3c b291 e33d ce3d afbd de48 173d
00000290: f038 553c 4ec6 d4bc a0d2 f1bd 1537 02be
000002a0: 0c41 d8bd 58d5 413d af74 20be 032b 85ba
000002b0: 6ff5 0fbe 3041 2ebe 6c97 9e3c 1ecf b73c
000002c0: 8a02 323e 80e5 96bc 6449 953d 728d a03d
000002d0: 2a9d e43c dafb 843e 1ae9 803d 0c1a a9bd
000002e0: 89de dc3d 5a13 0b3e 945f 11be cd6c 193e
000002f0: 92b2 fabd a611 833d 077f 153d 951e 8cbe
00000300: 19e6 1dbe 6584 993d 5c95 6dbe 2069 313c
00000310: ac0e 103d 5a07 bc3c 256c 3b3e cdaa 803d
00000320: 69bb 033c a64e b63d 5a6d e83d ae5b 47bd
00000330: a30e 803d cd3e 823d 63c6 5a3c 2693 cc3c
00000340: a3f7 7f3e 8323 c5bd 11a9 1abe 6289 963c
00000350: 2e81 143e c96f ea3d 191e 593c 4c77 acbd
00000360: 9e82 c03c d7cf a2bd 286b 1d3e 33b5 1fbe
00000370: 3621 523d 22b8 d4bd d77b 81bd 467b 20bd
00000380: 9f80 0fbe ae93 97be 6044 783d 9f09 833c
00000390: 8a56 edbd 83c3 9d3c a2a0 13be 2d91 c93c
000003a0: ba05 b7bd bad3 07be a84b 64bd ff17 3fbe
000003b0: 0e0b 46be 1ada 123c 2683 013e 3282 823e
000003c0: 60f6 38be 349b 01be 7d39 f3bd 00a4 8b3d
000003d0: 3dec c1bd c440 09be 1612 c7bd 7d54 a93d
000003e0: b3e3 69bc 3120 9cbd 7f38 ebbd a7ba fbbc
000003f0: ad24 abbc fe4b 25be 7aa2 d5bc d92a 1ebe
