test/models/squeezenet1.0_nhwc/weights/fire6_e3x3_kernel.npy (npy, 331856 bytes, 1 tensors)

array f4 [3, 3, 48, 192]
0	0x3df26f7a	0.11837669
1	0xbd75a139	-0.059968207
2	0x3c62bc94	0.013838906
3	0x3d0a82ab	0.03381602
4	0x3d2262cf	0.039645012
5	0x3b5a4fb7	0.0033311674
6	0x3e026e36	0.12737355
7	0xbdb7f94b	-0.08983096
8	0x3d95a532	0.07306899
9	0x3e04bbeb	0.1296231
10	0x3d815f4f	0.06317007
11	0x3ccceabc	0.025014274
12	0x3d8ee5d2	0.069774285
13	0x3acee4fa	0.0015784793
14	0x3dea2f12	0.11434759
15	0xbccd8133	-0.025086021
16	0x3c989a62	0.018628303
17	0xbd62edbe	-0.05540251
18	0x3d75ba85	0.059992332
19	0x3cae4787	0.021274341
20	0x3c863d89	0.016386764
21	0xbd456674	-0.04819341
22	0xbd486c8f	-0.048931655
23	0x3ba64dd8	0.0050751977
24	0x3c6c4254	0.014420111
25	0xbce744cc	-0.028231047
26	0x3d56c5bc	0.052434668
27	0xbdde52df	-0.1085565
28	0xbd845d74	-0.06463137
29	0x3d70b95a	0.058770515
30	0xbd13ca52	-0.03608162
31	0xbc912429	-0.017717438
32	0xbdb2f624	-0.08738354
33	0xbd9a2a6d	-0.07527623
34	0xbe18100c	-0.14849871
35	0x3dc2b358	0.09506863
36	0x3d4bf882	0.049797542
37	0x3c441b11	0.011969344
38	0xbc4a1b7a	-0.0123356525
39	0xbd58eea0	-0.052961946
40	0x3cf69322	0.030099455
41	0x3c2b4f86	0.010455972
42	0xbd91ed6d	-0.071253635
43	0x3c7432f2	0.014904724
44	0xbd2e5109	-0.04255775
45	0x3da5e779	0.081007905
46	0x3cd64dfd	0.026160235
47	0x3de11f15	0.109922566
48	0xbe32f8fd	-0.17477794
49	0xbdec6aff	-0.115438454
50	0xbd827de8	-0.06371671
51	0x3c3c632a	0.011498252
52	0xbd14a27b	-0.036287766
53	0x3dd8bb4d	0.105826
54	0x3d9afae0	0.07567382
55	0xbcdfc48a	-0.027315397
56	0x3d930c9f	0.07180142
57	0xbd445fe6	-0.04794302
58	0xbd97e566	-0.07416801
59	0x3c627a38	0.0138230845
60	0x3c3cfce7	0.011534906
61	0xbc0239ea	-0.007948378
62	0x3dc2e7e7	0.09516888
63	0xbc7309a3	-0.014833841
64	0x3d8ded23	0.06929996
65	0xbdd7a212	-0.10528959
66	0x3dc5a370	0.09650314
67	0xbd8c8e82	-0.06863119
68	0xbc22486a	-0.00990496
69	0x3d4091bf	0.047013994
70	0x3e132e7e	0.14373204
71	0x3cc00c2f	0.02344331
72	0xbd000950	-0.03125888
73	0x3d9fb5f3	0.07798376
74	0xbde30750	-0.11085379
75	0xbbc5a120	-0.0060311705
76	0xbcfc800a	-0.030822773
77	0xbdf9f04f	-0.12204038
78	0x3dffbb4f	0.12486898
79	0x3b170192	0.0023041707
80	0x3d52df9b	0.051482778
81	0xbde3e302	-0.11127283
82	0xbd834912	-0.064104214
83	0xbd972190	-0.073794484
84	0x3d40de6e	0.047087125
85	0x3d0b8a75	0.03406759
86	0xbd0a9b05	-0.033839244
87	0xbd43c169	-0.047791872
88	0x3d638333	0.055545043
89	0xbdfd8de8	-0.12380582
90	0xbd8b61b4	-0.06805745
91	0xbce7b9ec	-0.028286897
92	0xbc061dfb	-0.008185859
93	0xbd15a5ba	-0.036535002
94	0xbe108e79	-0.14116849
95	0xbdac796e	-0.084215984
96	0x3c9e8c69	0.019354062
97	0x3becfff1	0.007232659
98	0xbdcbb372	-0.09946336
99	0xbd838e58	-0.06423634
100	0x3d80e810	0.062942624
101	0x3dbfbda0	0.0936234
102	0xbd87db54	-0.066336304
103	0x3ddbe1d8	0.10736436
104	0xbe04d8f0	-0.1297338
105	0xbc5b8c76	-0.013400188
106	0x3e3c5f83	0.1839581
107	0xbe3e395a	-0.18576565
108	0xbd8b36d4	-0.06797567
109	0x3e053c27	0.13011228
110	0x3d84724e	0.064671144
111	0xbd93c4f6	-0.07215302
112	0xbd69e0e3	-0.057099234
113	0x3d0b1871	0.033958856
114	0xbd88cad0	-0.066793084
115	0xbe0b10dd	-0.13580652
116	0x3e04d3d9	0.12971438
117	0xbdb997c0	-0.09062147
118	0x3e234c42	0.15947059
119	0xbe0548ae	-0.13016006
120	0xbd857524	-0.065164834
121	0xbcb79ad3	-0.022412693
122	0xbda9cdeb	-0.08291229
123	0x3d9eaee0	0.077481985
124	0xbd178e0c	-0.0370007
125	0xbdc9fa5c	-0.098622054
126	0xbd1de043	-0.03854395
127	0xbce7f202	-0.02831364
128	0x3d36a462	0.04459036
129	0xbc23319c	-0.009960558
130	0x3d9a5076	0.07534878
131	0x3e1d2dd2	0.1534951
132	0xbcbc7231	-0.02300367
133	0xbe46f36a	-0.19428793
134	0x3e0908a9	0.1338221
135	0x3dec43e8	0.115363896
136	0x3c57b70a	0.0131661985
137	0xbc80ed60	-0.01573819
138	0x3d3ad60f	0.0456143
139	0xbe029f40	-0.12756062
140	0x3d6c65ef	0.0577144
141	0xbd8f595b	-0.06999465
142	0x3c6c1523	0.014409336
143	0xbdca49d4	-0.09877363
144	0x3d7efb5f	0.062251445
145	0xbc0bbc3b	-0.008528764
146	0xbce626c5	-0.028094659
147	0xbbcb9b26	-0.0062135635
148	0x3dd8fbd9	0.10594911
149	0xbd99c0eb	-0.07507499
150	0xbc88f94a	-0.016720433
151	0x3d6e1abf	0.058130976
152	0x3d76bc7b	0.060238343
153	0xbdb115ee	-0.08646761
154	0xbb512783	-0.003191442
155	0x3d1ba37b	0.037997704
156	0x3db99b70	0.090628505
157	0x3d7eafac	0.062179253
158	0x3d744bb2	0.0596425
159	0x3d5e3126	0.05424609
160	0xbcf76e6c	-0.03020402
161	0xbd223929	-0.039605293
162	0x3d9272c1	0.07150794
163	0x3cd85555	0.026407877
164	0xbc3c812a	-0.0115054045
165	0xbe04dbaf	-0.12974428
166	0x3e79e234	0.24402696
167	0xbdc9eeed	-0.098600246
168	0x3d664628	0.05621925
169	0xbd6360da	-0.055512287
170	0x3d786056	0.060638748
171	0xbe5db731	-0.21651913
172	0x3bcab816	0.0061864955
173	0x3d861f5a	0.065489486
174	0xbdaf66e1	-0.085645445
175	0xbdced386	-0.10098939
176	0xbaeafb8b	-0.0017927749
177	0xbe353a33	-0.17697982
178	0xbe180a60	-0.14847708
179	0xbcb9d9e1	-0.0226869
180	0xbd58c2c4	-0.052920118
181	0x3d9cc2c4	0.07654336
182	0xbd8340d5	-0.0640885
183	0xbc29cbb0	-0.010363504
184	0xbd6b9794	-0.057517603
185	0x3d745c67	0.059658434
186	0xbd13df01	-0.036101345
187	0x3d306959	0.043069217
188	0x3d974e48	0.07387978
189	0xbdf1ec8c	-0.11812696
190	0x3de6a500	0.1126194
191	0xbd980b11	-0.07423986
192	0xbda23883	-0.07920935
193	0x3d8f8091	0.07006944
194	0xbd7f162a	-0.062276997
195	0xbcf258f3	-0.02958343
196	0xbd249677	-0.040182557
197	0xbc95154e	-0.018198635
198	0xbe3a580c	-0.1819765
199	0x3e7d0f8d	0.24712963
200	0xbdf40dfd	-0.119167306
201	0xbd946ff3	-0.07247915
202	0x3ddb81c5	0.10718111
203	0xbba5b6be	-0.005057185
204	0xbdedce5a	-0.11611624
205	0xbdae1955	-0.085009255
206	0x3dce0f07	0.1006146
207	0xbc9c9556	-0.019114178
208	0x3b4d070a	0.0031284713
209	0x3da8a574	0.08234683
210	0xbd0853b3	-0.033282947
211	0xbc94d0ff	-0.018166063
212	0xbd0fcef5	-0.03510948
213	0xbd4517de	-0.048118465
214	0x3cffad06	0.031210434
215	0x3babc93a	0.005242494
216	0x3dc61e09	0.096736975
217	0xbe877530	-0.26456594
218	0xbcb0b076	-0.021568518
219	0xbc915625	-0.017741272
220	0xbd82c080	-0.06384373
221	0x3c07c60f	0.008286967
222	0x3d5fe369	0.054660235
223	0xbe02b278	-0.12763393
224	0x3da6fa58	0.08153218
225	0xbd83dbfe	-0.064384446
226	0xbe02737f	-0.12739371
227	0xbdc088dd	-0.094011046
228	0x3db38da1	0.08767248
229	0xbda011ab	-0.0781587
230	0xbdc01892	-0.093796864
231	0x3ba5af04	0.005056264
232	0xbd395ee1	-0.0452565
233	0xbe364052	-0.17797974
234	0xbc8feb60	-0.01756829
235	0x3dadca6c	0.084858745
236	0xbcf62522	-0.030047003
237	0xbdd5e279	-0.10443587
238	0x3d292f17	0.041304674
239	0x3deeb1d6	0.11655013
240	0x3dad5381	0.08463193
241	0x3d881ba7	0.06645899
242	0xbdd2bece	-0.10290299
243	0x3cf2de66	0.029647063
244	0xbde3be7a	-0.11120315
245	0x3b479d04	0.003045858
246	0x3dae5628	0.08512527
247	0x3db37678	0.087628305
248	0xbd6c066e	-0.05762332
249	0x3da656d6	0.081220314
250	0xbd9e74a6	-0.07737093
251	0x3d297a78	0.04137656
252	0x3d25d951	0.040490452
253	0x3d1aff06	0.037840866
254	0xbce7311f	-0.028221665
255	0x3e1c96c3	0.15291886
