test/models/squeezenet1.0_nhwc/weights/fire2_squeeze_kernel.npy (npy, 6224 bytes, 1 tensors)

array f4 [1, 1, 96, 16]
00000000: e527 703c b502 85be 7fc5 873c ded3 5fbe
00000010: 00da 273e 500e 43be 715c 03bd a3ac 313e
00000020: 8d25 a43d 54fb 3b3d b886 fbbc 19db 6b3c
00000030: 517c 10be 37ba 7b3e 3d91 993d 29ac ce3d
00000040: e668 ac3c 8f4c 93bd 6725 6fbd 0f14 b53e
00000050: be2c 333e c989 03bf 0613 c13d b711 bbbe
00000060: b61e b43d 5ca5 d7bd a06c a03d 7320 92bc
00000070: e773 8bbe bc5f 87be 6604 4ebe 72a1 153f
00000080: 9e94 fabd 073b 27be 8742 c7bd c411 e73d
00000090: 7ab5 11bf aa52 36bf 9904 fd3c 1156 763e
000000a0: cd73 d83d 0f87 c73d bf61 763d a9dc 0d3d
000000b0: f2d7 a03d cc81 a93e 6e08 ac3b 06d3 a43b
000000c0: e095 1f3c affb d7bb 2ccd 6d3e e3fb 66bd
000000d0: 88ca 61be 9322 a33d 0af5 5f3e ad02 6a3e
000000e0: cb5d 823d a365 af3e 5845 39bd 98d4 bcbd
000000f0: 9dd1 4f3d b8cb cd3c f8f2 7abe 3583 a63d
00000100: f9bc 77bd e9cc 5a3e 3d50 c73f 3047 873e
00000110: 195b cd3e c7f6 a33d 911d 01bf 4d9c a03e
00000120: 9622 3b3f 215c f2be e20a 2cbe ff76 903e
00000130: 2554 753e efc1 383d 84bb 91be 6e31 923e
00000140: 0cfd 54be 9143 5ebe b015 7ebc 06f2 4c3e
00000150: 670d cb3e ff0c 6ebf 453e a43c d4a7 62bd
00000160: 9620 cabd d836 c6bb 91b7 c9bb 2492 b7bc
00000170: d200 d9bd 6b99 483e 0adb 233d 21a2 763e
00000180: 282f 11be 0adc e8bd 5a3f 403d d2fa 2d3e
00000190: 4608 1fbe 7426 e2be 4078 c63d 8246 163e
000001a0: 69fd 14bd fa61 b4bc 4899 673d aeda 043b
000001b0: 5ecd 46bd 0457 5a3e c443 353f 43cd 4a3e
000001c0: d973 373e 17fb 533e fe5e 49bd ba34 0cbe
000001d0: 1486 dabe 0bbd 953e 9f58 1a3e 5944 053f
000001e0: d2cb 403e 8747 983c 106f 893d 8eb8 1e3d
000001f0: 2790 02be c0c8 bebe 646c 79be d358 bd3e
00000200: e93d 5d3d 1bb9 783c 2dfd d83b 5c79 703e
00000210: 4130 a23e 1993 dbbf 4001 d93d a515 673d
00000220: 1356 b23e ca18 f23c 38b7 153e a066 683d
00000230: a219 53be 8df3 523e fbf8 4f3e fbc1 043e
00000240: 6d41 cd3d d1fe c73d ec16 6fbc 4939 d2bc
00000250: 13d2 80bf e39a 41be 2f07 b03c 59fb 043f
00000260: 7088 82bd 6b68 043b 8908 343d ba2c 343c
00000270: bb6c 523e 3ab9 7fbe ad89 d8bd a5b6 003d
00000280: 4e0a 593e 3b1e 193f 7deb 213e 09b2 113f
00000290: 55c1 ec3e 87ae dc3e a880 a5bd 8679 083f
000002a0: ac43 243f 2bed a43f 54f3 8d3c be88 913f
000002b0: 2b59 843e b7af 2e3e 058a b2bd 23e0 c23e
000002c0: 4020 0fbe 7ec4 efbb 7832 c93d a2b2 7dbd
000002d0: bf03 cabc 52aa bbbd d393 423e 64e9 013e
000002e0: b47d 553d 18f8 a9bd 53b4 06be 1712 61be
000002f0: 1c6a 873d b915 3b3b e29d 32be 813c 8abd
00000300: e940 10bf 3592 933d 9576 c6bd 82c2 a1bd
00000310: 34b6 673e 0f91 253e a479 a13b 6eea d7be
00000320: 6eaa c03d 62de 8dbe 9211 a63c a5b6 ad3c
00000330: 4be4 593e 47f1 8d3d 0bd5 f4bd d571 5ebd
00000340: a525 e23c 9469 323e 67da 423e c802 943c
00000350: 4ad8 453e a327 ad3e 9943 363d 7cfa aabe
00000360: a47a 233d 875f 453d e502 b83c 9c45 01be
00000370: 35d9 8b3e 1454 3a3c 7337 c13e 54d7 ecbd
00000380: 8e4b a83d c636 19be 5cfb a7bd a64b ec3d
00000390: 2400 1cbf cdd9 bcbe 92a1 e33c 8fc9 f63e
000003a0: 1dad 98be d74e 993b 6f58 e23c 3381 323d
000003b0: ab8e b33d e204 903e 1ba0 f5bd 46b0 cd3d
000003c0: dd21 18be 6331 07be 6789 08bd 6411 d9be
000003d0: 337e 06bf 28be af3d 2535 643d 265a 3f3e
000003e0: 9645 35bd 9dc3 92bd 8d8f 843d f812 73bc
000003f0: 3bb6 96be 9d92 46be f05a 84bd f64a 093f
0.014657949 -0.25978628 0.016573666 -0.21858165 0.16391754 -0.19048429 -0.03207058 0.17351012
0.08014975 0.045893982 -0.030703887 0.014395499 -0.14109923 0.24582754 0.07498405 0.10091431
0.021046113 -0.07192337 -0.05838528 0.35366866 0.17497537 -0.5138212 0.094274566 -0.36536953
0.0879492 -0.10529587 0.078332186 -0.017837739 -0.27236864 -0.26440227 -0.20118865 0.5844947
-0.12235378 -0.16331111 -0.09729486 0.112826854 -0.56917536 -0.71219885 0.030885981 0.24056269
0.10568962 0.09742557 0.06015181 0.034634266 0.07853688 0.3310684 0.0052500283 0.0050300388
0.009740323 -0.0065912823 0.23222798 -0.05639256 -0.22049916 0.07965579 0.21870819 0.22852583
0.06365546 0.3425723 -0.045232147 -0.092202365 0.050737012 0.025121555 -0.24506748 0.081304945
-0.060482953 0.2136723 1.5571362 0.264215 0.40108564 0.080060534 -0.5043574 0.31369248
0.7309965 -0.47335914 -0.16801026 0.28215787 0.2395788 0.045106824 -0.28463376 0.28553337
-0.20799655 -0.21705462 -0.0155081 0.200142 0.39658663 -0.9298858 0.020049224 -0.055335835
-0.098694965 -0.0060490184 -0.006155916 -0.022408552 -0.105958596 0.19589774 0.040003814 0.24085285
-0.14178145 -0.11370094 0.046935417 0.16990212 -0.155305 -0.44169962 0.096909046 0.14675334
-0.036374483 -0.022019375 0.056542665 0.0020271945 -0.048535697 0.21322256 0.7080653 0.19804864
0.17915286 0.20701252 -0.049162857 -0.13691989 -0.42680418 0.2924579 0.15072869 0.52057415
0.18827751 0.018588794 0.067106366 0.038750224 -0.12750302 -0.37262535 -0.24357754 0.3698183
0.05401412 0.015180851 0.006621978 0.23483795 0.3167744 -1.7154266 0.105959415 0.056417126
0.34831294 0.029552836 0.14620674 0.056738496 -0.20615247 0.2060072 0.20309822 0.12964623
0.100222446 0.09765399 -0.014592867 -0.025662081 -1.006411 -0.18906741 0.0214878 0.51946026
-0.0637368 0.002020384 0.043953452 0.010996992 0.2054929 -0.24973002 -0.105731346 0.031424183
0.21195337 0.59811753 0.15812488 0.56912285 0.4624125 0.43101904 -0.0808118 0.5331043
0.6416576 1.2884878 0.017327942 1.1369855 0.2584928 0.17059217 -0.087177314 0.38061628
-0.13977146 -0.007317125 0.09824079 -0.061937936 -0.02465999 -0.091633454 0.19001703 0.12686688
0.052121833 -0.08299273 -0.13154726 -0.21979557 0.06612036 0.0028546883 -0.1744304 -0.067498215
-0.56349045 0.07205621 -0.096905865 -0.078984275 0.22628099 0.16168617 0.004927831 -0.42171043
0.09407507 -0.27708727 0.02027205 0.021205256 0.21278493 0.069307856 -0.11954697 -0.054307777
0.027605841 0.17423087 0.19028626 0.018067732 0.19320789 0.33819303 0.04449806 -0.3339423
0.03991188 0.048186805 0.022462318 -0.1262421 0.27314153 0.011372585 0.37737617 -0.11564508
0.08217536 -0.149623 -0.0820224 0.11537866 -0.60937715 -0.3688492 0.027787004 0.48200652
-0.29819575 0.004678588 0.027630059 0.043580245 0.08767446 0.28128725 -0.11993428 0.10043387
-0.14856668 -0.13202433 -0.033334162 -0.4239608 -0.52536315 0.08581191 0.055714745 0.18686733
-0.044255815 -0.071662165 0.06472693 -0.0148360655 -0.29435906 -0.19391866 -0.064626575 0.53630006
