test/models/squeezenet1.0_nhwc/weights/fire7_e1x1_kernel.npy (npy, 36944 bytes, 1 tensors)

array f4 [1, 1, 48, 192]
00000000: b296 3f3d d374 a6be 01a7 e5bd a02c 34bd
00000010: e71f e73d ca89 a0bd 4325 3ebe ba0c bcbc
00000020: f999 65bd f303 013e ef35 1e3e 2ba1 12bb
00000030: 8469 bdbd e52c 233e 0ead c23b 2336 143e
00000040: f9d2 453d a4cd a53d ab25 123c aed8 31bc
00000050: 71f7 51be dab7 803d 4555 0a3d c7df d7bc
00000060: c798 f43d 76d9 aa3b c283 b0bd 9d9d 0f3e
00000070: f864 d63d 7254 3d3d da27 c83d 0c15 bf3b
00000080: a1d5 8dbc dea9 edbd 8baf 46bd 696d 543e
00000090: 6e52 473c dce6 ccbd 321b 11bd c7e3 7b3e
000000a0: d5cb b9bd 89b0 b8bd 0bff efbd 1915 fc3d
000000b0: e182 1f3d 9d83 913d 20eb b43c 9f42 013e
000000c0: bf87 e6bd 66f6 20be 4ab2 77bc 64a3 bcbd
000000d0: 177b 0fbe 1ddf d03d b447 1dbd 86c0 533c
000000e0: 3c1f cfbd e905 43be c494 93bd ac44 3cbe
000000f0: d75e 64bd eca2 98be cafa 4bbd 7856 f33d
00000100: c3f7 1ebe a944 debc 6072 843d a830 943d
00000110: 9873 82bc d46d 00be fdc5 74bb 2007 e5bc
00000120: abf5 ca3d e761 73be ce5a 9abd ba5a 6dbd
00000130: ccde aa3d d8ae 0ebd f861 073e f993 133d
00000140: ab8d dbbd c860 a1bd 0160 44bd 0357 883c
00000150: b010 67bc a55d d63d 9af6 8fbc 87bf 0f3e
00000160: 48c8 803e 7a06 a6bd 97fd e3bd afe8 413e
00000170: 50bb b8bd 72d2 f83b e376 0abe 47c3 81bb
00000180: b106 323d f743 bf3c 5806 0bbe 19e3 2d3e
00000190: 638b 35be 8c2d 843e 028b e73d 7177 bebc
000001a0: 231e 97be c9e9 aebe acb9 7b3e a4dd c53b
000001b0: 99f6 3b3d ecc9 4e3a ab3b c4bd 1997 223e
000001c0: 33cc b3bd 5a53 c7bd 85d6 3a3c 9f8c 78bc
000001d0: 8871 ecbd ff64 973d f8fb 793e b56d 9fbd
000001e0: 6b6e c8bc 8475 15be 3f5e be3d bcfc da3b
000001f0: 3376 12be a917 b6bd b0ad 323c 0a04 2abe
00000200: 9abe acbc f979 a7bc 8ee3 57be 74df 4ebe
00000210: 883f 823b a704 36bd 3ff9 38be 2f5c 99bc
00000220: 3fe0 e8bd 2e33 2f3e 55c4 0ebd f0e6 0f3d
00000230: 6cc7 973c ca7a 20be 97d7 96bb a827 e83d
00000240: 9d85 f83d 05ca 53bd e4b8 383e 0870 5cbd
00000250: ee5e 833d ba78 f8bd 489f 2a3e 7f18 8e3d
00000260: 9784 de3d 80fc 94bc 931e 023e b99a 2abd
00000270: cf38 d03d b82a 36be 488f 41be 043a 113e
00000280: b761 fbbd 891f b93d ed16 0cbe 1d35 a33d
00000290: 56cd 1cbe a54b 1abd 917f 27be 417b 0cbe
000002a0: 3042 6dbc 54e4 f73d 7e8f 673c 498b 47be
000002b0: ddd8 a03c 5e5e 363e 2f40 1f3d 222b 963d
000002c0: 4047 143e cbcf 12be 45d1 7d3d 721c 253d
000002d0: f4d6 a03e c5bc 453d 7e60 cebc 6457 2e3c
000002e0: 10b2 143b 38de 10be dd56 cbbd 6be8 46be
000002f0: 7de9 31bc 17cd 6e3d e8d2 f03d b601 8cbe
00000300: 3171 b83c c442 a5bd 43d5 8e3d 157f 0b3e
00000310: a40b 14be c983 623e cec1 0fbe 7765 8a3e
00000320: c309 0bbe 2586 aa3e 08ae efbd 0aa7 39be
00000330: e8f6 aabe 442d 423d eaff 223e ea08 65be
00000340: 6cb5 04bd 08fb 37be 81be b1bd ffab 0ebe
00000350: f8cb b83e ae86 553d 4dd3 94bd e0b3 dbbd
00000360: 48f4 fb3d ee21 af3a 2da0 7ebe 32e6 883d
00000370: bae2 cc3d 06a2 8fba 1b94 613e c2e0 06be
00000380: 3d39 5dbd 6ba4 5b3d c047 073e 95b7 8e3d
00000390: 7bb7 803e 197d 26be 5f59 193d e457 1f3e
000003a0: b820 833e 1b93 29be b777 8abd 467d 443e
000003b0: 7858 63bc 31a8 bdbe b399 95be 6c00 e83d
000003c0: d2d2 7ebe 7531 7a3e db2c afbd 60c9 c8bd
000003d0: 83b2 5ebe c220 e93a ef1f 27be 9915 e2bc
000003e0: eef2 853d 97ec 8dbd c028 3fbe ff02 abbd
000003f0: fda6 473e bb04 973e c127 1bbe 85d2 163d
0.046774574 -0.32511005 -0.11213494 -0.04398787 0.11285382 -0.07838781 -0.18568902 -0.022955287
-0.056055043 0.12599163 0.15450262 -0.0022373896 -0.09248641 0.15935095 0.00594104 0.14473777
0.048296902 0.080958635 0.008920114 -0.010854883 -0.20504548 0.06285067 0.033772726 -0.026351823
0.119432025 0.0052139116 -0.08618881 0.14024968 0.10468477 0.04622311 0.09773226 0.0058313664
-0.01731378 -0.11604665 -0.048507255 0.20744862 0.012165649 -0.100049704 -0.035426326 0.24598609
-0.09072081 -0.090180464 -0.117185675 0.123087116 0.038943175 0.07105181 0.022084773 0.1262307
-0.1125636 -0.15718994 -0.015118191 -0.09210852 -0.14011799 0.101988055 -0.03839846 0.012924319
-0.10113379 -0.19045223 -0.07206109 -0.18385571 -0.05575451 -0.298118 -0.049799718 0.11881727
-0.15524201 -0.02713235 0.06467128 0.07235843 -0.01592426 -0.12541896 -0.0037349456 -0.027957499
0.09910139 -0.23767816 -0.07536851 -0.05794785 0.083432764 -0.034834713 0.13220966 0.03602979
-0.107203804 -0.07879788 -0.04794312 0.016643053 -0.0141031 0.1046708 -0.017573643 0.14037906
0.25152802 -0.08106704 -0.11132353 0.18936418 -0.09020102 0.0075934464 -0.13521914 -0.0039600465
0.043463413 0.023347838 -0.13576639 0.16981162 -0.17728953 0.25816 0.113058105 -0.023250313
-0.2951518 -0.3416274 0.24582547 0.0060383845 0.04588947 0.0007888365 -0.09581693 0.15877952
-0.08779182 -0.09732695 0.0114036845 -0.015170245 -0.11545092 0.0739231 0.24412525 -0.07784597
-0.024466714 -0.1459561 0.0929532 0.0066829603 -0.14302902 -0.088912316 0.010905668 -0.16603103
-0.02108698 -0.020443903 -0.21082899 -0.20202428 0.0039748587 -0.04443803 -0.1806383 -0.018720714
-0.113708965 0.17109367 -0.034855206 0.03513235 0.018527709 -0.1567184 -0.004603337 0.11335689
0.1213486 -0.051706333 0.1803928 -0.05381778 0.06414591 -0.12132402 0.16662323 0.06938266
0.10865133 -0.018186808 0.12706976 -0.04165146 0.101670854 -0.17789733 -0.18902314 0.14182287
-0.12274497 0.09039218 -0.1368062 0.07969115 -0.15312704 -0.037669796 -0.16357256 -0.13718893
-0.014481112 0.12104097 0.014133332 -0.19486727 0.019634658 0.17809436 0.03887957 0.07332446
0.14480305 -0.14337079 0.061967153 0.04031033 0.31413996 0.048275728 -0.025192495 0.010640953
0.0022689141 -0.1414727 -0.09928677 -0.19424598 -0.010858891 0.058301058 0.11758977 -0.27345055
0.022514911 -0.08069375 0.0697427 0.13622697 -0.14457566 0.22120585 -0.14038774 0.27030537
-0.13577943 0.3330547 -0.11703116 -0.18130127 -0.333915 0.04740645 0.15917936 -0.22366682
-0.03239958 -0.17966855 -0.08678914 -0.13932799 0.36093116 0.052130394 -0.07266865 -0.10727668
0.12302452 0.0013361552 -0.2486579 0.06684531 0.10004182 -0.0010958321 0.22029154 -0.13171676
-0.054009665 0.053623598 0.13210964 0.06968609 0.25139984 -0.16258658 0.037438747 0.15560871
0.256109 -0.16560023 -0.06761115 0.19188413 -0.013876073 -0.37042382 -0.29218826 0.113282055
-0.24885109 0.24432929 -0.085534774 -0.09804034 -0.21747784 0.0017786252 -0.16320775 -0.02759819
0.06540476 -0.069298916 -0.18667889 -0.08350181 0.19497295 0.29495797 -0.15151884 0.03682186
